python/models/fcn_exp_eval.pt (torch_old, 38577 bytes, 19 tensors)

blocks.0.conv.conv.weight f4 [16, 1, 16]
000000 f2 8d c9 be 1f 2e 1b 3d c1 dd 92 bb 68 9a ce bd
       -0.39366108 0.03788578 -0.0044820015 -0.100880444
000010 d4 93 4b be ac 24 99 be 01 db c3 be 78 00 19 be
       -0.1988061 -0.2991079 -0.38253024 -0.14941585
000020 2f 06 ea bd 05 93 85 be 22 b1 eb 3c b8 d5 52 3d
       -0.11426961 -0.2608873 0.028770987 0.05147335
000030 a4 e0 40 3e 61 f9 3f 3e fe 2a de 3d 26 eb 8a 3e
       0.18835694 0.18747474 0.10848044 0.2713253
000040 4e b7 0e 3e 7a 60 69 be b2 71 f6 3e e3 de 15 3e
       0.13937113 -0.22790709 0.48133618 0.14635806
000050 ad 69 0e 3e a0 24 59 be 57 eb 7e be 84 4a 34 3d
       0.139075 -0.21205378 -0.24894463 0.044016376
000060 04 0e af bd da 55 69 3d 27 28 a4 3d a0 80 51 bd
       -0.08547595 0.05696664 0.08015471 -0.051148057
000070 82 6d 07 be 0b 11 63 be 06 d5 b4 3e 31 64 e9 3e
       -0.13225368 -0.2217447 0.35318774 0.45584252
000080 d6 7a e1 bd c3 2b d4 3c c6 d1 cd 3d 68 8f 90 3e
       -0.11009757 0.025899773 0.10049777 0.2823441
000090 32 80 c8 3e fe 35 a1 3d 8c 96 8b 3e 44 cf 0d 3e
       0.39160305 0.07871626 0.27263296 0.13848597
0000a0 e1 2d 52 be 20 f6 9f 3c b2 e9 9d be 0e 03 c6 be
       -0.20525314 0.019526541 -0.30842358 -0.38674206
0000b0 b9 e2 ae be f2 26 4a bd 72 49 de 3d 51 2c 6c 3e
       -0.3415735 -0.049353547 0.10853852 0.2306378
0000c0 19 17 cb 3e 0c 47 3e 3e a7 09 8e be 0d c3 c5 bd
       0.3966606 0.1858179 -0.2774174 -0.096563436
0000d0 13 aa b0 be 13 6f 19 be 07 cb b9 be 73 f4 b2 bc
       -0.34504756 -0.14983778 -0.3628771 -0.021845078
0000e0 cd 4e b4 3a cc 00 9e bc 68 1f 95 3e 3e 8c 45 3e
       0.0013756395 -0.01928749 0.29125524 0.1929178
0000f0 3c 6b 87 3e 0b bb 4e 3e 64 86 4b 3d 0a 60 3d 3d
       0.26449 0.20188539 0.04968871 0.046234168
000100 9b 9f 09 3f 25 c3 a6 3e 72 e7 06 3e b3 7c e3 3d
       0.53759164 0.32570758 0.13174227 0.11107769
000110 7c 57 07 be f5 c4 f8 3d 83 3a 0f bd f2 ad 75 3e
       -0.13216966 0.121469416 -0.03496791 0.23992136
000120 c3 41 a1 3b 4f 7c e7 bd 7a f6 ba bc 93 be bd bd
       0.0049211695 -0.11303007 -0.022822607 -0.09264865
000130 0a 1f 22 3e 93 fd 80 3d 5f e5 82 3d 4b 94 f6 be
       0.15832153 0.062983654 0.06391405 -0.48160014
000140 38 a1 d3 be c6 07 08 3d 00 0f 82 3e 86 52 4e 3e
       -0.41333938 0.03321054 0.2540207 0.20148668
000150 b5 7a 59 3e b9 0f 0a 3e 95 18 8f be c0 17 d6 be
       0.21238215 0.1348256 -0.27948442 -0.41814995
000160 31 a6 40 bd 8f 88 37 3d f5 6d 0d 3d 6f 48 90 3e
       -0.047033492 0.044807967 0.03452869 0.28180262
000170 41 9e ca 3d 39 c7 a3 3e e2 6f 73 be 89 28 95 be
       0.09893466 0.31987932 -0.23773149 -0.29132488
000180 7e ef 59 3e 92 76 ae bc 40 bb ec bb 24 7b 8f 3e
       0.21282765 -0.021296773 -0.0072244704 0.28023636
000190 ea ac 00 3e 3b 0d 20 bd 29 22 04 be 84 c9 ab be
       0.12565961 -0.039075118 -0.12903656 -0.33552182
0001a0 87 19 e6 3d 7c 90 5c 3e 92 5f 48 be ed 7b 5d be
       0.11235338 0.21539491 -0.19567707 -0.21629305
0001b0 57 12 bd be 0d 31 65 be c9 ac d5 be 86 96 4d bf
       -0.36928055 -0.22381993 -0.41733387 -0.80307806
0001c0 63 1d 30 3e 5b fb dd 3c a4 41 0c bf f0 d4 bf 3c
       0.1719871 0.027097395 -0.5478766 0.023416966
0001d0 b8 06 8c be bf 3f 3a 3e e7 7b bc bd 92 e9 9e 3e
       -0.27348876 0.1818838 -0.0920332 0.31037575
0001e0 9c 8b d9 bd 46 8e 5d be e9 5e 21 3e 0f 0b 49 be
       -0.106223315 -0.21636304 0.15758862 -0.19633125
0001f0 0a 69 b7 3d ce 4d b7 3e f5 fa 61 3e 42 03 a0 bd
       0.089555815 0.35801548 0.22068389 -0.078131214
000200 a9 7b ec 3d 4c 9b 7b 3d 04 bc 82 3e ce a5 6a 3d
       0.11547024 0.0614274 0.2553407 0.05728703
000210 6c a8 c6 be 2b f5 dc be 18 3e 07 be ba 7a ba bc
       -0.3880037 -0.43155798 -0.1320728 -0.022763599
000220 14 db 10 bd 4f bc 79 3d 6c c9 e5 3e 2c d9 92 3e
       -0.03536518 0.0609706 0.44880235 0.28681314
000230 51 c9 66 3e 49 17 a1 be 0f c8 16 3e a2 6e 1b be
       0.22537734 -0.31463078 0.14724754 -0.15178922
000240 ab 90 92 3e ae e9 c0 3d 74 10 97 3d b4 86 a3 be
       0.28625998 0.09419571 0.07376185 -0.31938708
000250 a2 11 90 3e 93 bf 8f be 8e ae 77 bd 94 76 1a 3e
       0.28138453 -0.28075847 -0.060469203 0.15084296
000260 6c 83 f2 be 4c bb b5 be bc eb 5e 3b 04 7e dc bd
       -0.47365892 -0.3549446 0.003401502 -0.10766223
000270 87 2b 68 3e f3 1c 20 be aa 79 84 3e 8e 8d 8d 3e
       0.22672854 -0.15636043 0.25874072 0.2764706
000280 3e 9c ca be 1b 17 a3 be 38 7f b8 3d 4e 27 8d 3c
       -0.39572328 -0.31853566 0.0900864 0.017230656
000290 14 40 27 3e 21 83 5f bd a9 b1 a8 bd 94 70 ea 3d
       0.16333038 -0.054568414 -0.08237011 0.11447254
0002a0 b9 4b be 3d 2a 77 12 3e 6d 13 04 be 3f 48 8b 3e
       0.09291787 0.1430327 -0.12898035 0.27203557
0002b0 c7 f5 a5 3e ff 35 a9 3e 06 b5 1b 3e 82 13 84 be
       0.32414076 0.33049008 0.15205774 -0.25796133
0002c0 5e 44 c4 3e 6e a7 da be 4f 61 de bd f4 2a cf 3e
       0.3833341 -0.42705864 -0.10858404 0.40462458
0002d0 78 f3 0f bd f6 4d 41 bb e0 f9 ae bd 54 fb 7b be
       -0.0351443 -0.0029495931 -0.085437536 -0.24607593
0002e0 4c bc f5 3d 49 27 7c 3e cf 19 07 be 1a 37 e6 bd
       0.119988054 0.24624361 -0.13193439 -0.112409785
0002f0 e4 1b 22 be 6a 7a ee 3d 0c ca 67 3d 57 40 0d be
       -0.15830952 0.116444424 0.05658917 -0.13794075
000300 97 a0 71 3e 84 85 9c 3e 01 6c 49 3e 8e 0c 8f 3e
       0.23596416 0.30570614 0.19670106 0.27939266
000310 6f 6d 2f be b1 a3 2f be c2 2c 6b be 15 fb b1 be
       -0.1713159 -0.17152287 -0.22966293 -0.34761873
000320 8d ac 74 be b6 61 d6 3d 83 db 5a bd 64 26 01 bf
       -0.23893948 0.10467856 -0.053432 -0.50449204
000330 78 68 03 3d 0a 27 c9 3d 9c 28 ab bd b0 f8 d8 3e
       0.03208205 0.09821899 -0.08357355 0.42377234
000340 54 25 d5 bd c3 99 8a be 59 5b 4c 3d 1a d8 b3 3e
       -0.104075104 -0.27070436 0.049891803 0.3512581
000350 c5 84 51 3e ff 4c 9e 3e 5d ac 6f 3e d9 c3 72 be
       0.20460804 0.30918118 0.23405595 -0.23707522
000360 ff 46 90 be e2 69 f3 be 07 79 42 bd 18 b5 72 be
       -0.28179166 -0.4754172 -0.047478702 -0.23701894
000370 5a 5c e2 bc 45 5b 29 3e cf b5 af 3e 9f 4a d1 3d
       -0.027631927 0.16538723 0.34318396 0.10219311
000380 3c bc 2b 3d 12 b4 cf 3d 30 e5 c7 3d 62 98 aa be
       0.04192756 0.101417676 0.09760511 -0.33319384
000390 87 1b c4 3d 49 0f 2b 3e a6 88 44 be fc 4a 9d be
       0.09575563 0.1670505 -0.19192752 -0.3072127
0003a0 22 0c 48 3e 15 40 8b 3e b5 ec 4b be b3 0b 08 3e
       0.19535878 0.27197328 -0.19914515 0.13285713
0003b0 ee 1c 69 be d8 0b a3 bd cd 0e e0 3e 7c a6 71 be
       -0.22764942 -0.079612434 0.43761292 -0.23598665
0003c0 47 d3 8e be 36 7e 81 be f9 fb 4a 3e 8e 93 38 3d
       -0.27895567 -0.25291604 0.19822682 0.045062594
0003d0 77 66 7c 3e 3c 92 83 3e 31 f8 89 3e 9c 61 27 3e
       0.24648462 0.25697505 0.26947168 0.16345829
0003e0 a8 ea 73 be 1e 01 b9 3d bd 61 01 bf aa b7 ed bd
       -0.23819983 0.09033416 -0.5053976 -0.11607297
0003f0 f8 8d 4b be 23 da a4 3e 11 52 d1 bd fd 03 41 3e
       -0.19878376 0.32197675 -0.10220731 0.18849178

blocks.0.conv.conv.bias f4 [16]
000000 62 44 7f 3e e1 3a d4 3d 5a 9f a8 be 14 25 87 be
       0.2492843 0.10362793 -0.32934076 -0.26395476
000010 dd db 0d 3a b8 7e 88 be fd a1 66 bc bb bd 68 bd
       0.00054114853 -0.2665918 -0.014076707 -0.056821566
000020 4a f8 2a 3f 10 f8 53 3e e0 72 b4 be d4 e1 b2 3e
       0.6678511 0.20700097 -0.35243893 0.34937918
000030 fa 40 73 3e 34 98 3b 3e fd 62 93 3d 39 e1 93 3e
       0.23755255 0.1831978 0.07196615 0.2888277

blocks.0.bn.weight f4 [16]
000000 bf 73 3a 3f f8 fe 38 3f 47 71 a3 3f f5 ba 74 3f
       0.72832865 0.7226405 1.2768945 0.95597774
000010 92 4c 4b 3f 3a 8e 6e 3f 10 d5 70 3f 06 57 5b 3f
       0.7941371 0.9318577 0.9407511 0.8567966
000020 16 40 ae 3f 71 ec c3 3f 19 97 35 3f 02 28 5c 3f
       1.3613307 1.5306531 0.7093368 0.8599855
000030 46 9b a9 3f d3 16 a8 3f 28 13 47 3f bf b6 cc 3f
       1.3250511 1.3131965 0.77763605 1.599327

blocks.0.bn.bias f4 [16]
000000 fd b0 af 3d 97 e6 b1 bc 9a 72 33 be 25 23 32 3d
       0.0857868 -0.0217164 -0.17524186 0.043490548
000010 69 74 6a 3c 35 dd ca 3d 89 05 54 bd 90 dc 27 3e
       0.014309981 0.09905473 -0.05176309 0.16392732
000020 39 31 de be db 52 a1 3e c6 92 92 bc 81 c1 3b bd
       -0.4339693 0.31508526 -0.017892253 -0.045838837
000030 c9 54 0d be a8 df ce bd c0 45 7b 3d 29 9a fa bd
       -0.13801874 -0.10101253 0.061345816 -0.12236435

blocks.0.bn.running_mean f4 [16]
000000 3b 73 83 3e 3d da c9 3d dc 6f a9 be 55 7a 88 be
       0.2567385 0.09856079 -0.33093154 -0.26655832
000010 0e 3c b8 bb ab 2a 88 be 81 9d 8f ba 92 9c 69 bd
       -0.0056223935 -0.26595053 -0.0010956974 -0.057034083
000020 4f 98 2a 3f f6 d4 54 3e bf 36 b6 be 0c 4b b3 3e
       0.66638654 0.20784363 -0.35588643 0.35018194
000030 52 47 74 3e d0 e1 3a 3e d0 e5 93 3d dc aa 93 3e
       0.23855332 0.18250203 0.07221568 0.28841293

blocks.0.bn.running_var f4 [16]
000000 2c 5c f2 3d f5 7b 9f 3c 05 31 6f 3d 3a 92 5f 3d
       0.11833987 0.019468287 0.058396358 0.054582812
000010 0f 76 88 3d fd 81 a5 3b 49 b8 54 3e d3 2d a5 3c
       0.06663143 0.005050896 0.20773424 0.020163452
000020 13 dc a6 3c 64 c7 13 3d ea 0c 79 3d 21 09 4d 3b
       0.020368611 0.036078826 0.06080333 0.0031285959
000030 36 c1 85 3d 88 a4 b4 3c 43 7c b9 3a 7a ce 8b 3c
       0.06530993 0.02205111 0.0014151413 0.01706623

blocks.1.conv.conv.weight f4 [32, 16, 10]
000000 f6 c5 c5 bd 82 f5 ce bd 00 dc 6f bd 61 f5 1b 3c
       -0.09656899 -0.10105421 -0.058559418 0.009518952
000010 58 90 fc ba 64 de 02 3e aa 2c 2e 3e 2e e9 8b 3e
       -0.0019269092 0.12780148 0.17009225 0.2732634
000020 9a a4 32 3e 70 ee 34 3e 4a 65 7d bd 84 7f 30 3d
       0.17445603 0.17669082 -0.061864175 0.04309036
000030 b8 04 59 3d 90 fc 0f bd 71 72 09 3d 30 32 fa 3c
       0.052983016 -0.03515297 0.033556405 0.03054151
000040 d4 c9 16 be 59 d3 08 bd 94 7a fa 3d 9e fa 8c 3e
       -0.14725429 -0.03340468 0.12230411 0.27534956
000050 6c ee 0d bf 74 57 bb be f2 69 ba be ab ff 1a be
       -0.5544193 -0.3659016 -0.36408955 -0.15136592
000060 4c 01 01 be 92 b5 33 be 33 03 78 be 23 d6 31 be
       -0.12598151 -0.17549732 -0.2421997 -0.17366843
000070 5c 3c 65 bd 50 d3 db bd fd ea 08 be 57 d2 a6 bd
       -0.055965766 -0.10733664 -0.13370891 -0.08145588
000080 ee 1d ac 3b 11 a9 24 bd 38 31 42 3d 45 22 ca 3d
       0.0052525913 -0.040200297 0.04741022 0.09869818
000090 31 0e 31 3e 31 d0 5d 3e 5c 18 56 3e b1 12 73 3e
       0.1729057 0.2166145 0.2090773 0.23737599
0000a0 dd 7a 61 be 3d 1f 1b be e8 3f 01 bb b8 63 9f 3c
       -0.22019525 -0.15148635 -0.001972193 0.01945673
0000b0 05 6f 43 3e b5 06 f4 3d 6a d1 07 3e ee 2c 64 3e
       0.1908532 0.11915342 0.13263479 0.22282764
0000c0 23 7a 0a 3e 47 83 3e 3e ca 8c 22 be 49 6a 3e bb
       0.13523154 0.18604766 -0.1587402 -0.002905505
0000d0 1b 37 11 be bd 55 cc bd a9 42 1a be a8 13 b6 3d
       -0.14181177 -0.09977291 -0.15064491 0.08890468
0000e0 28 6f 6f 3e 15 a4 a4 3e a9 72 1b 3e 19 95 88 3e
       0.23382246 0.32156435 0.15180458 0.26676252
0000f0 84 57 8a 3e 6d eb 8e 3d cd 44 03 bc 17 f6 ca bd
       0.27019894 0.06978498 -0.008012009 -0.09910219
000100 1f da 81 bd 30 37 de 3d 29 3e 0b 3e cc 95 26 3e
       -0.063404314 0.1085037 0.13597931 0.1626808
000110 59 12 79 3e e0 fc a5 3e ab 21 2b be 5c d7 fe bd
       0.24323405 0.3241949 -0.16712062 -0.1244342
000120 4f 62 35 be 89 32 45 be a7 d9 10 be 02 ee 5c bd
       -0.17713283 -0.19257559 -0.14145528 -0.05393792
000130 0c 37 17 3d 3c c5 b3 3d 10 5b 90 3e 5f 51 04 3f
       0.03691773 0.08777854 0.28194475 0.5168666
000140 ff 04 ab bc e3 e9 6f 3d 12 36 93 3c 15 5f 8d bc
       -0.020876406 0.05857266 0.017970119 -0.017257253
000150 2e 93 8d bc 7b 4f ac 3c 99 e0 8c 3d 5f 89 0e be
       -0.017282095 0.021033993 0.06878776 -0.1391959
000160 74 ab d3 bd 55 05 9d be 60 ba 0f be 08 e5 54 3d
       -0.103354365 -0.3066813 -0.1403594 0.051976234
000170 4b 57 cb bd a3 e5 14 bc 6e 61 22 3d 56 35 61 be
       -0.09928759 -0.009087953 0.039643697 -0.21993002
000180 b2 05 dd bc e6 c4 a0 bd dc a5 1b 3e b2 1a 42 3e
       -0.026980255 -0.078500554 0.15199989 0.18955496
000190 5c 22 29 3e c6 52 74 bd d7 0b 1e bd ed 78 5c bd
       0.16517013 -0.05964925 -0.03858551 -0.05382626
0001a0 04 41 a5 3c 3d e3 c4 bb ab fb 14 3d 8a 12 47 bc
       0.020172603 -0.006008534 0.03637282 -0.012150416
0001b0 94 30 a0 3d 6f 4a 44 3e 2f 32 d8 bd 6b d1 a8 be
       0.078217655 0.19169019 -0.10556447 -0.32972273
0001c0 13 c7 db be 84 f6 bb be e7 4a c5 be 9c b6 a6 bd
       -0.4292532 -0.36711514 -0.38533708 -0.08140299
0001d0 ac d5 9a bc a1 26 16 3e d4 f4 54 3e 1a 29 9d 3e
       -0.018900715 0.14663173 0.2079652 0.3069542
0001e0 4e 8e a8 bd d2 85 01 be 50 f6 60 bc e9 be 36 3d
       -0.082302675 -0.12648705 -0.0137306005 0.04461566
0001f0 6c 5b f7 bd 71 b6 0c be ab 44 0f be 7b fb 16 bc
       -0.12077984 -0.13741471 -0.13991039 -0.009215231
000200 fe 54 48 3d a6 bc 97 3e 1e 64 81 be 18 49 9d bc
       0.04890918 0.29636115 -0.25271696 -0.019199893
000210 a6 ce 7d 3d 46 f3 56 be 2a 29 a4 be 96 de 6c be
       0.061964653 -0.20991239 -0.32062656 -0.23131785
000220 61 e2 b0 bd 0c 5f 28 be c5 21 8c bd 82 ee 07 bc
       -0.08636928 -0.16442508 -0.068423785 -0.008296611
000230 b6 76 8b be e4 1b 49 be f0 fe 1e bd 66 84 a1 bc
       -0.27239007 -0.19639546 -0.038817346 -0.019716453
000240 72 3c 9d bd 14 94 8f bc 2b b6 8a bd 58 e3 bd 3d
       -0.07677545 -0.017526664 -0.06773027 0.09271878
000250 70 b4 66 3e 7e 98 d6 3e 6c ad 16 be a2 18 fa bc
       0.22529769 0.41913217 -0.14714593 -0.030529324
000260 84 be 32 bd 0d e9 0a 3e d7 f7 66 3d ba 79 56 3e
       -0.04363872 0.13565464 0.056388702 0.20944872
000270 74 d9 ed 3d 73 e5 74 bc fd 32 ce be fd 5e 11 bf
       0.116137415 -0.014947283 -0.40273276 -0.56785566
000280 a3 25 fe bd 5e 9d 0b be df e7 df bd 7b e9 b0 bb
       -0.124095224 -0.1363425 -0.10932898 -0.005398927
000290 c2 18 14 3c d4 95 1e 3d 01 10 5e be 4e 2e 8f be
       0.009039106 0.038717106 -0.21685793 -0.27965015
0002a0 a6 8e fe be fd 7a 2d bf 0c 68 91 3e 39 f4 9e 3e
       -0.49718207 -0.6776579 0.28399694 0.31045702
0002b0 1c 6a 79 3e f9 74 97 3e 6d dd 8f 3e c7 45 4a 3e
       0.24356884 0.2958143 0.28098622 0.1975318
0002c0 80 f6 45 3e 07 e5 87 3e f1 dc 95 3e 52 4c 65 3e
       0.19332314 0.26541921 0.29270127 0.22392395
0002d0 5e 8b b6 3d ea 2b 1e bd dc 82 63 bd 5a aa 8b 3d
       0.08913301 -0.0386161 -0.05554472 0.06819601
0002e0 29 d2 8a 3d 93 6d 25 3e 00 4c 1c bc 54 ee c1 bd
       0.06778366 0.1615508 -0.009539604 -0.094692856
0002f0 ea b0 8e bd a5 30 44 be 26 e2 85 be e1 66 4d be
       -0.069673374 -0.19159181 -0.261491 -0.20058776
000300 f2 bf 1d be af 83 0e be 6f 3d 21 be 2c 51 68 bd
       -0.15405253 -0.13917421 -0.15746091 -0.056718037
000310 ab fd 98 bd 61 96 e0 bd a4 66 13 be bb 4f 74 be
       -0.07470258 -0.109661825 -0.14394623 -0.2385854
000320 7f b7 a5 be 9a f0 91 be 4d ac 86 be 29 07 b6 be
       -0.3236656 -0.28503877 -0.2630333 -0.35552338
000330 c3 47 ba be d2 ea c2 be 2e 64 bb be 8f 79 81 be
       -0.36382875 -0.3806978 -0.3659987 -0.25288054
000340 06 d1 a5 be 6c 07 a3 be 80 f5 1c 3e b8 73 00 3d
       -0.32386035 -0.318416 0.15328026 0.031360358
000350 58 46 b0 3d c2 aa fd 3c 8f 46 97 3d ac 58 12 3c
       0.08607167 0.030965213 0.07386505 0.008932274
000360 a4 ee db bc 43 41 6c 3c 1b 35 2a 3d 6f 49 f3 bb
       -0.026847191 0.0144198565 0.04155455 -0.0074245255
000370 7c 27 14 be 9e 9e 56 be e3 fd df bd 3e b8 37 be
       -0.14468187 -0.20958945 -0.10937097 -0.17941377
000380 2c 0b 58 be a1 68 99 bd d4 b6 43 be 66 7c 44 be
       -0.21098012 -0.074906595 -0.19112712 -0.19188079
000390 0d a8 b0 be 02 2d 40 bf d4 64 a3 3e 6f 69 90 3e
       -0.34503213 -0.75068676 0.31912863 0.2820544
0003a0 3c 60 0d 3e a3 4c 1d 3e e9 71 60 3e 30 ca 7b 3e
       0.13806242 0.15361266 0.21918453 0.24588847
0003b0 c0 38 3f 3e d7 e3 82 3e d5 02 eb 3d eb f0 4f 3d
       0.18673992 0.25564453 0.114751495 0.050766867
0003c0 7e bd 4e 3d f1 7b 16 bb 70 7e b1 3c 64 9e 8e bd
       0.050473683 -0.0022962058 0.021666735 -0.06963804
0003d0 11 26 10 bd 46 1f 84 3d 26 87 21 bd 58 1e c0 bb
       -0.035192553 0.064512774 -0.03943553 -0.0058629923
0003e0 1e 85 e8 bb 63 42 e8 3d a0 9e 30 be 3d 9e 27 be
       -0.007095947 0.11340787 -0.1724801 -0.16368957
0003f0 79 6e b7 bc fb f4 a3 bd 76 74 92 bd e7 eb 96 bd
       -0.022391545 -0.08005711 -0.071511194 -0.073692136

blocks.1.conv.conv.bias f4 [32]
000000 02 1e 09 bd 90 30 78 3e 6d 8a e5 bc 8f d0 da bd
       -0.033475883 0.24237275 -0.028020108 -0.10684311
000010 fa a5 ab bd 33 19 c7 be 80 c1 83 3b 47 97 47 be
       -0.08381267 -0.38886413 0.0040208697 -0.19491301
000020 d9 7c b4 bb 2a 89 57 3c 5e 29 01 3e 85 10 c4 bd
       -0.005508047 0.013155261 0.12613437 -0.09573463
000030 86 6a d6 3e dd 7b 02 bd a1 6d f0 3d 56 31 1f 3c
       0.41878146 -0.031856406 0.1173966 0.009716352
000040 e2 c8 68 3e 0e 10 d1 3e 42 3c ef bd f1 e8 bc bd
       0.2273288 0.4083256 -0.11681415 -0.092241175
000050 9f af 1a 3e 4e d4 2a be 69 2f 1e be f1 ef 3b 3d
       0.15106057 -0.1668255 -0.15447773 0.045883123
000060 e4 e2 35 bb ac ba 12 3e dc 11 82 3e 72 df 0f 3d
       -0.0027753646 0.14329022 0.2540425 0.035125203
000070 83 50 44 3d a2 c6 41 bd 9f 2a aa 3e dc df 28 be
       0.047928344 -0.04730857 0.33235642 -0.16491646

blocks.1.bn.weight f4 [32]
000000 14 00 56 3f df 86 62 3f 84 79 0a 3f 6d 61 84 3f
       0.8359387 0.88487047 0.5409167 1.0342232
000010 cc d9 3f 3f e8 4f 75 3f fb b9 61 3f a1 20 79 3f
       0.74941707 0.9582505 0.8817441 0.9731541
000020 23 9f 4c 3f 36 6c 75 3f ef b0 76 3f 26 e8 50 3f
       0.79930323 0.9586824 0.9636373 0.8160423
000030 1b 1e 84 3f eb 45 fc 3e 32 60 85 3f 29 d6 7a 3f
       1.0321687 0.49272093 1.0419981 0.9798303
000040 44 10 36 3f 91 d7 5b 3f 4e 46 61 3f 92 fa 79 3f
       0.7111857 0.85875803 0.879979 0.97647965
000050 b9 46 78 3f 51 73 82 3f d0 24 6c 3f ef 94 56 3f
       0.96982914 1.0191442 0.9224367 0.83821005
000060 aa 20 35 3f b6 98 12 3f 6c ca 75 3f 21 de 83 3f
       0.70752966 0.5726427 0.96011996 1.0302163
000070 39 b5 6f 3f 51 98 5c 3f 43 25 67 3f e4 c1 67 3f
       0.936359 0.86169916 0.9029123 0.9053023

blocks.1.bn.bias f4 [32]
000000 6a 79 aa be ed ba b2 3c e5 3d 12 bf 6a ed 7a be
       -0.33295757 0.021817649 -0.57125694 -0.24504629
000010 b8 6e 10 be 5b 9a 0d bf 18 0c a4 be b3 41 bb be
       -0.14104736 -0.5531365 -0.32040477 -0.36573562
000020 7f 25 89 be d9 69 c0 be 88 02 85 be 32 bd c7 be
       -0.2678642 -0.37580755 -0.25978494 -0.39011532
000030 c7 6f c5 be c7 e9 17 bf f0 05 a9 bd ce 29 ba be
       -0.38561842 -0.5934109 -0.082530856 -0.3636002
000040 79 51 ac be 34 e1 72 be 50 ef a6 be 52 16 00 bf
       -0.3365591 -0.2371872 -0.32604456 -0.5003406
000050 ce e3 a1 be cb 45 df be 90 ee d5 be 24 96 c2 be
       -0.31619114 -0.43607935 -0.4178357 -0.38005173
000060 ec 02 de be 8f 2b 73 be e8 7a e8 be c6 ce 89 be
       -0.43361604 -0.23747085 -0.4540627 -0.26915568
000070 b2 dc 21 bf 4a 2c 06 bf a6 4a b7 be dd 7c 88 be
       -0.6322738 -0.5241133 -0.3579914 -0.26657763

blocks.1.bn.running_mean f4 [32]
000000 7e 28 de be a5 b1 b5 bf b4 e2 bd 3e 93 7a ed bf
       -0.43390268 -1.4194838 0.37087023 -1.8553032
000010 6e c9 ff be d6 61 2e c0 94 47 08 bf 4a 4c 9e bf
       -0.49958366 -2.7247214 -0.5323422 -1.2367032
000020 21 3a 65 bf 50 d8 db bf 8f 67 c8 bf e7 bc 2b c0
       -0.8954182 -1.7175388 -1.5656604 -2.6834047
000030 9c 63 19 c0 36 f9 d5 3f e0 35 ee bf 63 ef 8f bf
       -2.3967047 1.6716678 -1.8610191 -1.124493
000040 b8 e2 88 bf 20 92 c9 bf 6e 09 41 c0 22 ef 89 bf
       -1.0694189 -1.5747719 -3.0162005 -1.0776103
000050 79 4a f8 bf 78 80 5f bf 16 97 92 bf f3 ef 0c c0
       -1.9397727 -0.873054 -1.1452358 -2.2021453
000060 40 eb 99 bf 67 89 1f bf 82 af 89 bf 5f ec 24 c0
       -1.2024918 -0.62319034 -1.0756686 -2.576927
000070 48 c6 d0 bf 24 21 fd bf 53 da 95 bf fd 59 f3 bf
       -1.6310511 -1.9775739 -1.1707252 -1.9011837

blocks.1.bn.running_var f4 [32]
000000 16 4d ef 40 d5 9c 70 41 30 25 bb 40 4d 23 a0 40
       7.47816 15.038289 5.8482895 5.004309
000010 5f b6 c4 40 ab 33 80 41 a1 9f 01 41 54 53 95 40
       6.147262 16.025229 8.101472 4.666422
000020 c8 a5 27 41 2b 1b f5 40 d9 c6 f6 40 21 2f 86 41
       10.477974 7.6595664 7.7117734 16.773012
000030 cf 9e b2 42 33 e6 4a 41 dd b4 51 41 a8 8b 16 41
       89.31017 12.681201 13.106656 9.409096
000040 92 b2 99 40 e8 75 09 42 7a ff 0d 42 fa f0 24 41
       4.803048 34.365143 35.49949 10.308832
000050 ef d9 88 41 53 1a 0d 41 e6 29 26 41 86 d1 3b 41
       17.106413 8.818927 10.385229 11.738653
000060 30 c2 2b 41 d6 62 63 41 fc f9 99 41 2a d1 fd 41
       10.734909 14.21163 19.247063 31.72713
000070 80 49 fc 40 f0 e2 f2 40 1d 3d 94 40 28 b8 4b 41
       7.883972 7.5902023 4.63246 12.73246

blocks.2.conv.conv.weight f4 [16, 32, 6]
000000 05 09 77 3d cc 4b 31 3d 07 93 86 bd 86 7d af bd
       0.060311336 0.043285176 -0.06571012 -0.085688636
000010 ec 48 eb bd 26 b6 78 be e2 1e 1e bd 79 a3 18 3c
       -0.11488518 -0.24288234 -0.03860367 0.009316319
000020 9f 84 87 ba cc d5 54 bc bb 45 3c bc e1 24 19 bd
       -0.0010339207 -0.012990426 -0.011491234 -0.037388686
000030 8c 4a 11 be b2 c2 28 bd fa 5c 82 bd e5 dc 6d 3d
       -0.14188594 -0.0412013 -0.0636539 0.05807199
000040 12 45 61 3d e7 78 05 3e 5c 10 6f 3e 64 c9 4b 3e
       0.05499751 0.13034402 0.23346084 0.19901043
000050 71 95 14 3e 2c 57 f2 3d 97 b5 35 3e 2a 9c 4a 3e
       0.14510132 0.11833033 0.17745052 0.19786134
000060 d8 77 1a 3d a7 cd 0a 3d 0f e7 92 3c 09 2a 22 3d
       0.03771195 0.03388753 0.017932443 0.03959087
000070 36 03 a5 3d f7 8c fc 3d 6f 3e 05 3f ed c0 a5 3e
       0.08057253 0.123315744 0.5204839 0.32373753
000080 88 8f 88 3e 43 9e 94 3e 60 32 92 3e 11 7e a0 3e
       0.26672006 0.29026994 0.28554058 0.3134618
000090 6a b3 c4 be 44 07 6f be 12 f9 9f bd db 03 96 3c
       -0.38418132 -0.23342615 -0.07811178 0.018312385
0000a0 4c b8 de 3d a0 c7 99 3d 9c 5c 39 be 1e a2 54 be
       0.108749956 0.075087786 -0.18101734 -0.20764968
0000b0 7a c4 4f be fe 5b 34 be ee 7a 3a be 96 60 2d be
       -0.20289794 -0.17613217 -0.18210956 -0.16931376
0000c0 12 b4 5d 3d 3f 6d cc 3c 77 94 72 3d 97 05 fb 3d
       0.054126807 0.024954436 0.05922362 0.122569256
0000d0 51 a5 1f 3e 4d 46 76 3e c0 55 fe bd c3 0c b9 bd
       0.15590407 0.24050255 -0.12418699 -0.09035637
0000e0 10 43 e2 bd 9e 37 46 be 3c 25 24 be 11 0d 57 be
       -0.110479474 -0.19357154 -0.16029829 -0.21001078
0000f0 38 a4 ac 3e 15 92 84 3e dd 55 53 3e e4 82 15 3e
       0.3371904 0.25892702 0.20638223 0.14600712
000100 70 d7 e6 3d f3 ae 74 3d e3 cc 5c be c9 86 4c be
       0.1127156 0.059737157 -0.21562533 -0.19973291
000110 76 23 1b be d1 69 38 be 54 ef 35 be bc 6c 48 be
       -0.15150246 -0.18009116 -0.17767078 -0.19572729
000120 7c 36 cd be 7c 8b e4 be e3 6c f6 be de 64 df be
       -0.4008063 -0.44637668 -0.4812995 -0.43631643
000130 0d 63 cb be eb 34 97 be f8 1c 79 bd b4 36 9c bc
       -0.39724007 -0.2953256 -0.060818642 -0.019069053
000140 5f 69 a0 bc 35 d3 67 3d 82 3f 34 3d 23 01 35 bd
       -0.019581495 0.056597907 0.04400588 -0.044190537
000150 d9 00 c4 bd 08 7a fc bd 8e 3d 18 be 03 d9 4a be
       -0.09570474 -0.12327963 -0.14867231 -0.19809346
000160 eb e0 34 be cc 09 30 be bd e4 1d be 9f 94 1b be
       -0.17663924 -0.17191237 -0.15419288 -0.15193413
000170 6a 25 3f be 09 89 84 be 16 9d 9c be 03 7a af be
       -0.18666616 -0.258858 -0.30588597 -0.34272775
000180 59 91 5b be ef 18 4a be e6 95 4d be bf bc df bd
       -0.21442164 -0.19736074 -0.20076713 -0.10924672
000190 e1 45 49 3d d3 9d 43 3e 44 ee 4e be f3 96 52 be
       0.049138907 0.19103174 -0.20208079 -0.20565395
0001a0 f5 6d 67 be ec 9e ae be d9 a4 54 be 39 07 44 be
       -0.22600539 -0.34105623 -0.2076601 -0.1914338
0001b0 76 80 df 3d c8 fb b8 3d 92 17 bf 3d 6f 61 84 3d
       0.10913174 0.090323985 0.093306676 0.064638965
0001c0 f5 8e da 3d 1a c5 1b 3e 5d 69 c2 3d bf c6 b1 3c
       0.10671798 0.15211907 0.09492753 0.021701215
0001d0 60 65 10 3d 80 f1 d4 bc c2 bc d1 3d 15 d7 32 3e
       0.03525293 -0.025994062 0.10241081 0.1746486
0001e0 bc a9 05 be 9d 73 f3 bd b6 cd 09 be 06 c4 f3 bd
       -0.1305303 -0.11887286 -0.13457379 -0.11902623
0001f0 a5 f6 26 be 70 f2 08 be ae 18 05 3f 0a 30 8e 3e
       -0.16305025 -0.13373733 0.51990783 0.27771026
000200 01 f9 bd 3e 32 f9 87 3e 77 b6 02 3e ed 71 b8 3e
       0.37104037 0.26557308 0.12764917 0.36024418
000210 dd 30 d0 bd b6 96 95 bd fb 78 bc bd 07 cf 5d bd
       -0.1016557 -0.073041365 -0.09202763 -0.054152515
000220 84 7b db bd b8 71 5e be 1d 32 88 3e bb a7 8e 3e
       -0.10716918 -0.21723068 0.26600733 0.27862343
000230 e1 df ac 3e bd 29 bf 3e 5f 47 df 3e f5 0c f7 3e
       0.33764556 0.3733653 0.4360914 0.48252073
000240 6d 1f 32 be f0 b6 00 be 74 a0 70 bd 98 cd 33 be
       -0.173948 -0.12569785 -0.05874677 -0.17558897
000250 04 14 4d be c8 28 84 be 15 17 a6 bd 3a 88 1f be
       -0.20027167 -0.25812364 -0.08109871 -0.1557931
000260 63 f4 88 be 1a 30 ab be 0c 68 b2 be eb 51 82 be
       -0.26748952 -0.33435136 -0.34845006 -0.25453123
000270 f1 3f b3 3e d0 ab 56 3e 2c c3 58 3e 89 80 1d 3e
       0.3500972 0.20963979 0.21168202 0.15381064
000280 5e 62 ce 3d 76 30 7c 3e 57 1f 79 bd 04 77 b4 bd
       0.10077356 0.24627861 -0.060820904 -0.08811763
000290 60 e0 e8 bd e7 7c 4a be 7a 0d 4e be 21 94 1c be
       -0.11370921 -0.19774209 -0.20122328 -0.15290882
0002a0 b3 6f 9e 3f 37 60 3e 3f a7 aa 55 3f 10 b1 2f 3f
       1.2377838 0.7436556 0.8346352 0.6862955
0002b0 1e 1d 2d 3f 33 03 47 3f 27 0c 9d be 01 0f ab be
       0.67622554 0.77739257 -0.30673334 -0.33409885
0002c0 ac 7f c6 be 3a a1 d6 be ab 09 52 be cf ef 11 bd
       -0.3876928 -0.4191988 -0.205115 -0.03562909
0002d0 02 c6 db 3d 16 05 c9 3d a8 91 f4 3d 87 f7 dd 3d
       0.10731126 0.09815423 0.11941844 0.10838228
0002e0 fa 2f 97 3d c3 a7 26 3e 72 2e af 3c 5d 34 aa 3c
       0.07382198 0.16274934 0.021384452 0.020776922
0002f0 a7 65 19 bc ea a2 c5 bd 95 d6 2c be 44 cc 19 be
       -0.009362615 -0.09650214 -0.16878732 -0.15019327
000300 b2 93 39 be 6a 01 44 be 82 57 32 be 71 8e 04 be
       -0.18122748 -0.19141164 -0.17416194 -0.12944962
000310 75 ae db 3c 8f fa 39 3c 44 76 a1 bc 19 31 e4 bd
       0.026816586 0.011351242 -0.019709714 -0.11142177
000320 e5 08 a2 bd 94 e6 11 be a9 04 f8 bd bf 46 bc bd
       -0.07911853 -0.14248115 -0.12110264 -0.09193181
000330 bf a0 49 bd 3c 5e 4e bc d5 65 87 bd 25 bb e6 bc
       -0.049225565 -0.012595709 -0.0661122 -0.02816541
000340 d3 d3 ac bd 3a 57 30 be ad c5 7f 3d 03 cc 97 3d
       -0.0843884 -0.17220774 0.062444378 0.07411959
000350 ba dc 2c 3b 3d 0c a1 3d 6b 1d 04 bc 11 78 79 bd
       0.002637668 0.078636624 -0.008063654 -0.06090552
000360 71 36 6e 3d 33 bf d7 3d 7a c2 ea 3c 7c 5c 2a bd
       0.058157388 0.10534515 0.028657187 -0.041592106
000370 d4 4b 1f 3d 6c 83 c3 3d 79 93 43 bf 6a 22 2a bf
       0.038890675 0.09546551 -0.763969 -0.6645876
000380 5d 55 5b bf 08 ba 27 bf 05 57 1b bf a3 7b 83 bf
       -0.8567713 -0.65518236 -0.60679656 -1.0272106
000390 fc 9b 78 3e 6a d6 35 3e 1d a8 81 3e 0e b8 4a 3e
       0.24278253 0.17757574 0.25323573 0.19796774
0003a0 87 1d 4a 3e d8 f3 87 3e 85 b8 cb bd 23 10 a2 bd
       0.19737826 0.26553226 -0.09947304 -0.07913234
0003b0 d5 e7 d8 bd df e7 57 be 24 11 10 be e9 f5 41 be
       -0.105910935 -0.21084546 -0.14069039 -0.18941464
0003c0 86 a3 c7 bd 0f f2 b0 bd ca f8 fe bd 68 61 60 be
       -0.097479865 -0.08639919 -0.124497965 -0.21912158
0003d0 e5 b0 2e be 3f 85 6e be d7 58 92 3d 53 6b 5e 3d
       -0.17059667 -0.23293017 0.07145851 0.05430157
0003e0 71 8f 9d 3c 34 c9 63 bb 10 61 a9 3d 98 52 26 bc
       0.019233437 -0.0034757378 0.08270466 -0.010151528
0003f0 a6 7d 07 be 99 8f 01 bc fb 65 04 bd 24 bd 03 bd
       -0.13231525 -0.0079077715 -0.03232382 -0.0321628

blocks.2.conv.conv.bias f4 [16]
000000 1e 53 f2 3c e1 6e 1f 3b d8 da 2c bb 5e c0 07 be
       0.029580649 0.0024327564 -0.0026375558 -0.13256976
000010 0a 36 89 be 46 74 fe bd a6 55 c1 be a0 d3 bd be
       -0.2679904 -0.12424521 -0.37760657 -0.3707552
000020 d8 f6 fb 3d cb 6f ad bc 8c 89 41 3e ca 36 64 3e
       0.12302941 -0.021171471 0.18900126 0.22286525
000030 bd 39 40 be b4 c4 37 be c9 43 4c bc af 2a 84 be
       -0.18772025 -0.1794613 -0.012467333 -0.25813815

blocks.2.bn.weight f4 [16]
000000 18 27 80 40 96 34 46 40 10 f5 99 40 ca 88 83 40
       4.004772 3.0969596 4.811165 4.110448
000010 58 31 91 40 d3 1d 5c 40 86 f9 3e 40 88 15 7c 40
       4.5372734 3.4393203 2.9839797 3.9388142
000020 b6 09 25 40 8c 12 83 40 18 56 31 40 46 2c 81 40
       2.5787177 4.096014 2.7708797 4.0366545
000030 5c 06 33 40 2e c3 86 40 49 d2 1d 40 e1 39 60 40
       2.7972631 4.2113256 2.4659598 3.5035326

blocks.2.bn.bias f4 [16]
000000 85 e0 35 bf 35 81 dd 3f 43 05 82 bf 6f f2 05 bf
       -0.71045715 1.7305056 -1.0157856 -0.5232305
000010 a1 89 02 bf e1 1a b8 3f e9 e5 b7 3e 81 f2 74 bf
       -0.50991255 1.4383203 0.35917595 -0.9568253
000020 f6 ee b8 3f cb 64 5f bf 41 b0 d6 3f 36 e9 06 bf
       1.4447925 -0.8726317 1.6772538 -0.526996
000030 d9 59 d5 3f 01 a0 04 bf 0e 0f ca 3f bd f5 b9 3f
       1.6668044 -0.51806647 1.5785844 1.4528118

blocks.2.bn.running_mean f4 [16]
000000 74 6e 9c be 64 07 6f bf 92 83 dc be b1 b0 11 bf
       -0.3055302 -0.9337065 -0.4306913 -0.56910235
000010 da 3d 32 bf 0e 12 4f bf 74 67 25 bf 20 d8 59 bf
       -0.6962563 -0.80886924 -0.6461098 -0.85095406
000020 6b 18 a1 3f 4d 42 d8 be 19 5a ab 3f 5f 4f 49 be
       1.2585577 -0.42238083 1.3386871 -0.19659184
000030 70 f5 76 3f 41 6e 1a bf dc 2c 0c be 7e 01 7f bf
       0.9646826 -0.60324484 -0.13688987 -0.9961165

blocks.2.bn.running_var f4 [16]
000000 7b 60 90 3e a4 d4 8d 3f 72 7a b2 3e f3 14 86 3e
       0.2819861 1.1080518 0.34859043 0.26187858
000010 9a 69 97 3e 43 ae 64 3f 84 1b d0 3e 95 0b b1 3e
       0.29572755 0.893284 0.40645993 0.3457915
000020 e1 2d 01 3f a4 3d 91 3e a0 c0 d8 3e 6b 4e 53 3e
       0.5046063 0.2836734 0.4233446 0.20635383
000030 72 77 e1 3e 02 13 87 3e 94 67 12 3f 01 c3 75 3f
       0.44036442 0.2638169 0.571893 0.9600068

cam_layer.weight f4 [4, 16]
000000 fa bb 43 c0 af b5 ee 3f b4 06 9b c0 b3 99 81 c0
       -3.0583482 1.8649195 -4.8445683 -4.050012
000010 25 09 75 c0 f0 69 cb 3f e7 cf d3 be d9 bf 18 c0
       -3.8286831 1.5891705 -0.41369554 -2.3867095
000020 36 25 80 3f 07 dd 3c c0 15 99 c3 3f 41 38 5c c0
       1.0011356 -2.9509904 1.5281092 -3.4409335
000030 77 30 c7 3f 90 36 87 c0 30 a1 e3 3f 02 06 e3 3f
       1.5561665 -4.2254105 1.7783566 1.7736208
000040 86 9a d0 bf 4e 0d f0 3e cf c4 60 bf 33 97 67 bf
       -1.6297157 0.4688515 -0.87800306 -0.90465087
000050 c9 3a 43 bf 7f d3 00 3f 69 e0 db 3f df 33 06 c0
       -0.76261574 0.5032272 1.717786 -2.096916
000060 d6 d9 45 3f 6e be f2 bf 6a 08 19 3f 0f 3e af bf
       0.77285516 -1.8964365 0.59778464 -1.3690814
000070 20 2e 38 3f 59 1d 89 bf be 98 40 3e a4 98 dd 3d
       0.7194538 -1.0712081 0.18808267 0.108201295
000080 a1 88 13 3f b3 72 42 bf c0 e6 34 3f 50 f1 9b 3e
       0.57630354 -0.7595627 0.70664597 0.30457544
000090 a8 df 2d 3f 5e 1c 23 bf 4b fe c2 3e b9 95 a4 3e
       0.679194 -0.6371516 0.38084635 0.3214548
0000a0 13 b8 b0 be 8e 24 e4 3e f2 fa db be b0 4b ab 3e
       -0.34515437 0.4455914 -0.42964894 0.33456182
0000b0 54 6b de be b4 45 8d 3e ec 7e c9 be df 1d 44 bf
       -0.4344126 0.27592242 -0.39354646 -0.7660808
0000c0 80 cb d7 3f f9 36 84 bf de be 88 3f 19 5a c1 3f
       1.6858978 -1.0329276 1.0683248 1.5105621
0000d0 c1 fe bf 3f fb e6 c4 bf 0f 47 ca bf f8 6b 00 40
       1.499962 -1.538299 -1.5802935 2.00659
0000e0 ae dc bb bf ae 2f d7 3f 13 07 b0 bf 3f 55 c6 3f
       -1.4676721 1.6811426 -1.3752159 1.5494765
0000f0 0c 86 a5 bf ab 4b ac 3f ba 63 9a bf 91 93 d3 bf
       -1.2931533 1.3460592 -1.2061684 -1.6529409
