python/models/fcn_sim_eval_25dB.pt (torch_old, 38581 bytes, 19 tensors)

blocks.0.conv.conv.weight f4 [16, 1, 16]
-0.45191658 -0.025773618 -0.043419447 -0.10611078 -0.18596295 -0.27577576 -0.36454937 -0.1363017
-0.111169964 -0.24996191 0.032445274 0.05396693 0.18963282 0.19005364 0.11150407 0.27568978
0.10803981 -0.27095875 0.46578914 0.1272981 0.1267577 -0.23401737 -0.2731039 0.027261382
-0.098604426 0.050941013 0.06443296 -0.06601647 -0.1533563 -0.23965774 0.34280384 0.44297647
-0.11609494 0.015940461 0.09147502 0.29695648 0.40857658 0.085864194 0.2812786 0.15185076
-0.18833394 0.035841893 -0.30071932 -0.38982114 -0.34264177 -0.038011316 0.11502553 0.2308379
0.37453562 0.17961425 -0.27990866 -0.10098486 -0.35666528 -0.16145079 -0.37573183 -0.031976055
-0.006945716 -0.01806767 0.29701337 0.20182776 0.26977378 0.20578177 0.05574154 0.05409629
0.6196757 0.43507892 0.2545087 0.23164117 -0.05099957 0.15449812 0.011302331 0.26353458
0.03565011 -0.08095638 0.015853982 -0.048774626 0.19002888 0.09524241 0.09599474 -0.4417991
-0.41069263 0.04152162 0.2718301 0.21982655 0.22660564 0.14008771 -0.28072298 -0.42389223
-0.057121012 0.037324633 0.028013997 0.2797314 0.098187745 0.31822225 -0.23603368 -0.28765848
0.17532034 -0.055532575 -0.034010362 0.25344825 0.10368302 -0.06484665 -0.15522043 -0.36387643
0.07011885 0.16775167 -0.23496556 -0.25822675 -0.4242587 -0.2919404 -0.4979525 -0.84185076
0.1621252 0.020893024 -0.56913555 -0.0052659954 -0.31685778 0.1398207 -0.1272931 0.28226393
-0.12627645 -0.22737993 0.14778405 -0.1917421 0.09920059 0.3587338 0.21696112 -0.09527219
0.09393229 0.045340322 0.2423417 0.03803771 -0.41056675 -0.4539892 -0.14846209 -0.033935755
-0.041055772 0.061959047 0.44982374 0.28612623 0.22187991 -0.3226421 0.12598377 -0.17432077
0.28403276 0.0894744 0.07016904 -0.3239332 0.28598642 -0.28008044 -0.053099353 0.14440666
-0.50017375 -0.37531418 -0.0048331358 -0.10496833 0.23476902 -0.15063593 0.26373777 0.26832682
-0.40473127 -0.3262975 0.07839909 0.01092363 0.15488192 -0.054709624 -0.07642189 0.111406416
0.09238216 0.14497638 -0.10928945 0.28665426 0.3480765 0.35633272 0.17942578 -0.22737892
0.39615425 -0.4270049 -0.10782529 0.405097 -0.04364192 -0.013773312 -0.0947284 -0.25355214
0.11673957 0.24882396 -0.14239934 -0.12948282 -0.18280621 0.09680645 0.0377482 -0.15036458
0.21856283 0.29811138 0.18557249 0.26994252 -0.18152031 -0.17953163 -0.25022012 -0.3768279
-0.27876195 0.07958773 -0.082027525 -0.49573663 0.031261545 0.09941217 -0.069987744 0.43131322
-0.11190407 -0.29307958 0.02642542 0.33659035 0.19621205 0.30321175 0.22398889 -0.25368404
-0.2971177 -0.49716005 -0.054469492 -0.24623711 -0.027769698 0.16273831 0.33458707 0.07137871
0.07232212 0.13218895 0.11785813 -0.32273084 0.09625498 0.16351387 -0.20415635 -0.31748596
0.19394356 0.27731624 -0.19812556 0.13351016 -0.22280313 -0.080268234 0.43115214 -0.25095358
-0.2757104 -0.26087096 0.18549143 0.036831494 0.24502373 0.259777 0.26976523 0.15957838
-0.25581878 0.07837008 -0.5225749 -0.1114411 -0.18352412 0.34186664 -0.09073508 0.185282
00000000: 9c61 e7be 3223 d3bc 97d8 31bd 9c50 d9bd
00000010: 126d 3ebe 7b32 8dbe 37a6 babe ac92 0bbe
00000020: 14ad e3bd 04f6 7fbe 56e5 043d 6d0c 5d3d
00000030: 1b2f 423e 6c9d 423e 3f5c e43d 3627 8d3e
00000040: fa43 dd3d 1bbb 8abe ea7b ee3e 6f5a 023e
00000050: c5cc 013e 40a2 6fbe 46d4 8bbe 4353 df3c
00000060: 1ef1 c9bd 86a7 503d 6df5 833d a533 87bd
00000070: 6f09 1dbe d768 75be fc83 af3e d0cd e23e
00000080: 2fc3 edbd 9295 823c 4157 bb3d ae0a 983e
00000090: f330 d13e 91d9 af3d c003 903e c47e 1b3e
000000a0: 9dda 40be f3ce 123d e2f7 99be a396 c7be
000000b0: be6e afbe c1b1 1bbd 8192 eb3d c560 6c3e
000000c0: 22c3 bf3e ccec 373e 3050 8fbe 26d1 cebd
000000d0: d59c b6be 5b53 25be ec5f c0be 53f9 02bd
000000e0: e498 e3bb a602 94bc 2312 983e f0ab 4e3e
000000f0: ca1f 8a3e 75b8 523e 3e51 643d 1294 5d3d
00000100: 11a3 1e3f aac2 de3e f74e 823e 5833 6d3e
00000110: ede4 50bd c134 1e3e 6a2d 393c 01ee 863e
00000120: da05 123d 75cc a5bd 36e0 813c e7c7 47bd
00000130: ee96 423e 740e c33d e498 c43d 7e33 e2be
00000140: 4e46 d2be 9312 2a3d 512d 8b3e 361a 613e
00000150: 4f0b 683e 2773 0f3e ecba 8fbe 6708 d9be
00000160: b9f7 69bd b7e1 183d 9c7d e53c f438 8f3e
00000170: a816 c93d 07ee a23e d0b2 71be f947 93be
00000180: 2d87 333e 2076 63bd 734e 0bbd f8c3 813e
00000190: c357 d43d 52ce 84bd 1bf2 1ebe 034e babe
000001a0: 799a 8f3d 18c7 2b3e d09a 70be 4c36 84be
000001b0: 7038 d9be 3679 95be a1f3 febe 8883 57bf
000001c0: 2604 263e d927 ab3c deb2 11bf 5f8e acbb
000001d0: 2f3b a2be 282d 0f3e 1f59 02be e684 903e
000001e0: 9d4e 01be 49d6 68be b454 173e 0b58 44be
000001f0: ae29 cb3d f5ab b73e 0e2b 5e3e 111e c3bd
00000200: 935f c03d c6b6 393d 6c28 783e 6ecd 1b3d
00000210: ce35 d2be 4671 e8be 7206 18be 3800 0bbd
00000220: 192a 28bd c5c8 7d3d 4c4f e63e 237f 923e
00000230: 7d34 633e 5831 a5be e401 013e 2581 32be
00000240: be6c 913e 5b3e b73d c9b4 8f3d 93da a5be
00000250: d06c 923e b466 8fbe b57e 59bd 57df 133e
00000260: 630b 00bf 2e29 c0be 485f 9ebb a3f9 d6bd
00000270: 4a67 703e 4e40 1abe a308 873e 2262 893e
00000280: f038 cfbe 7710 a7be b48f a03d 06f9 323c
00000290: 5e99 1e3e 3317 60bd 1483 9cbd 0c29 e43d
000002a0: dc32 bd3d b074 143e 26d3 dfbd 59c4 923e
000002b0: 1537 b23e 3e71 b63e 64bb 373e 05d6 68be
000002c0: bbd4 ca3e 63a0 dabe 81d3 dcbd e068 cf3e
000002d0: dfc1 32bd 75a9 61bc f700 c2bd 96d1 81be
000002e0: 2815 ef3d b5cb 7e3e 22d1 11be 2597 04be
000002f0: 8d31 3bbe 7642 c63d db9d 1a3d 2cf9 19be
00000300: efce 5f3e 0ea2 983e b706 3e3e e835 8a3e
00000310: 76e0 39be 24d7 37be da1c 80be 96ef c0be
00000320: e3b9 8ebe e4fe a23d 0cfe a7bd 31d1 fdbe
00000330: 1b0c 003d 9c98 cb3d bc55 8fbd 16d5 dc3e
00000340: f62d e5bd 870e 96be 1f7a d83c 9255 ac3e
00000350: d0eb 483e 923e 9b3e 585d 653e e0e2 81be
00000360: d01f 98be c38b febe 671b 5fbd 9525 7cbe
00000370: 477d e3bc dfa4 263e ff4e ab3e 002f 923d
00000380: 9f1d 943d 8a5c 073e 9a5f f13d fa3c a5be
00000390: 5521 c53d 2e70 273e 5d0e 51be 858d a2be
000003a0: 2499 463e 65fc 8d3e 6de1 4abe e3b6 083e
000003b0: 8126 64be ac63 a4bd f9bf dc3e fd7c 80be
000003c0: ea29 8dbe e190 85be 77f1 3d3e 9fdc 163d
000003d0: 80e7 7a3e 7e01 853e ab1e 8a3e 8468 233e
000003e0: aefa 82be 7e80 a03d 78c7 05bf 3b3b e4bd
000003f0: bfed 3bbe 2509 af3e 50d3 b9bd 91ba 3d3e

blocks.0.conv.conv.bias f4 [16]
0.26553676 0.13964385 -0.30560693 -0.35580215 0.06580962 -0.31351665 -0.035144314 -0.008254001
0.6009198 0.23050347 -0.37297717 0.3714323 0.22919732 0.28194293 -0.009299262 0.2952917
00000000: 6ff4 873e ccfe 0e3e 8378 9cbe b32b b6be
00000010: 32c7 863d 4185 a0be 7cf3 0fbd ca3b 07bc
00000020: e1d5 193f 1a09 6c3e ddf6 bebe 602c be3e
00000030: b4b2 6a3e d35a 903e ef5b 18bc 7930 973e

blocks.0.bn.weight f4 [16]
0.7040498 0.704441 1.2977284 0.94039357 0.7869104 0.9514868 0.9350577 0.84705204
1.42159 1.5400069 0.6983225 0.847587 1.35325 1.329101 0.7559729 1.6227952
00000000: 9c3c 343f 3f56 343f f71b a63f a2bd 703f
00000010: f672 493f a494 733f f15f 6f3f 67d8 583f
00000020: a9f6 b53f f21e c53f 43c5 323f 76fb 583f
00000030: 4c37 ad3f fb1f aa3f 7187 413f c1b7 cf3f

blocks.0.bn.bias f4 [16]
0.073132634 -0.01402648 -0.104490265 0.051273577 0.022141092 0.05839142 -0.0065120137 0.14389537
-0.40744096 0.26806417 -0.013513788 -0.01044357 -0.06989046 -0.0689338 0.041296564 -0.08375585
00000000: 90c6 953d 52cf 65bc fefe d5bd 3e04 523d
00000010: 3c61 b53c d72b 6f3d bb62 d5bb 4f59 133e
00000020: 1a9c d0be b53f 893e ef68 5dbc 821b 2bbc
00000030: bb22 8fbd 2a2d 8dbd 9626 293d 3088 abbd

blocks.0.bn.running_mean f4 [16]
0.26488385 0.13983259 -0.30556026 -0.3557735 0.06632407 -0.3135518 -0.035841726 -0.008356072
0.60116804 0.23078749 -0.37289557 0.37108782 0.22905464 0.28188154 -0.008858975 0.29533863
00000000: db9e 873e 4630 0f3e 6572 9cbe f227 b6be
00000010: ead4 873d dd89 a0be c6ce 12bd e8e7 08bc
00000020: 26e6 193f 8e53 6c3e 2bec bebe 39ff bd3e
00000030: 4d8d 6a3e c752 903e 3c25 11bc a036 973e

blocks.0.bn.running_var f4 [16]
0.16743763 0.014463286 0.06237383 0.063231185 0.19140434 0.005594663 0.36960977 0.036192104
0.021031631 0.041357055 0.09794896 0.008530916 0.082603194 0.021831408 0.0024323557 0.0144225
00000000: c574 2b3e 6bf7 6c3c b37b 7f3d 5a7f 813d
00000010: 80ff 433e 6f53 b73b 7e3d bd3e 2c3e 143d
00000020: 874a ac3c 0466 293d 7799 c83d 41c5 0b3c
00000030: dd2b a93d c8d7 b23c 2868 1f3b 594c 6c3c

blocks.1.conv.conv.weight f4 [32, 16, 10]
-0.120995 -0.13381384 -0.090799995 -0.02521425 -0.037320703 0.09833737 0.14886917 0.26463318
0.17999683 0.18823597 -0.048297968 0.06146928 0.07179496 -0.009299614 0.05993071 0.061184198
-0.12279466 -0.016649915 0.14091137 0.28341442 -0.53833425 -0.35009977 -0.37135747 -0.1810739
-0.17015111 -0.22760902 -0.30050257 -0.23798376 -0.103402786 -0.12320493 -0.12875602 -0.08205619
0.00253635 -0.038487118 0.053642716 0.108768106 0.1875463 0.24310681 0.24649055 0.28132355
-0.2319348 -0.16415478 -0.0150326295 0.010165757 0.18105868 0.11172488 0.12724863 0.22030924
0.13359065 0.18642955 -0.2413519 -0.084269814 -0.19881779 -0.13615465 -0.14928928 0.07573744
0.21034448 0.2914432 0.109722264 0.24144216 0.26019502 0.060803957 -0.021250159 -0.114887886
-0.08066467 0.0947954 0.12863088 0.15291417 0.22751121 0.30635247 -0.18472177 -0.14966851
-0.20625013 -0.22056584 -0.16549821 -0.070511214 0.031629104 0.08995745 0.28276226 0.5259267
-0.05743092 0.026444914 -0.003990989 -0.024655811 -0.020099236 0.018188143 0.06830122 -0.13832755
-0.10625619 -0.30240437 -0.12648122 0.070559934 -0.08056603 0.015493644 0.05839693 -0.18585436
0.0051685083 -0.061086588 0.15597235 0.16850258 0.16118698 -0.05509496 -0.030073466 -0.04721379
0.024835857 -0.00094835815 0.047327593 0.0062606903 0.10252415 0.22172445 -0.10775069 -0.33293766
-0.4337906 -0.3897097 -0.41145667 -0.10622752 -0.03704487 0.13355368 0.18714589 0.2915636
-0.07344899 -0.10626141 0.007193836 0.06038382 -0.10206022 -0.12238924 -0.14162394 -0.020150607
0.037956603 0.28821155 -0.24465835 -0.006775593 0.06514795 -0.21118204 -0.3325253 -0.25937787
-0.11732478 -0.19132726 -0.09720362 -0.043023042 -0.28471282 -0.20692508 -0.052536387 -0.039665904
-0.09689188 -0.05279478 -0.06736531 0.05597212 0.18189926 0.38952464 -0.11756383 0.00093911437
-0.009505174 0.15488279 0.05564391 0.19617532 0.09592652 -0.037610807 -0.42719102 -0.56867486
-0.13306016 -0.14355297 -0.11556309 -0.007923536 0.0070652226 0.036617495 -0.2173864 -0.27635685
-0.49337557 -0.6777713 0.29755378 0.32271478 0.25453934 0.29991263 0.28262457 0.19798265
0.18707876 0.2536011 0.2754818 0.19935712 0.104300044 -0.025136203 -0.045581255 0.07574421
0.074023984 0.16911659 -0.0006781878 -0.08902352 -0.06698438 -0.18909556 -0.24136142 -0.18513176
-0.14514242 -0.13207515 -0.14719677 -0.045182556 -0.06559018 -0.10268426 -0.14093177 -0.23976517
-0.34707117 -0.30945653 -0.28868562 -0.3834106 -0.39435187 -0.41190347 -0.39664042 -0.2831383
-0.35187384 -0.34264532 0.14255777 0.018472183 0.079993546 0.03093091 0.07634517 0.014806232
-0.011508569 0.033217132 0.0598956 0.01039746 -0.16685072 -0.22845851 -0.123369 -0.19346868
-0.22709277 -0.09066623 -0.20536435 -0.20787334 -0.36384788 -0.7717482 0.335279 0.30282968
0.16124593 0.17612903 0.24217227 0.27162084 0.21178569 0.27033457 0.12466869 0.054212693
0.06466585 0.010494823 0.026438693 -0.06648703 -0.033967804 0.06937442 -0.030997355 0.0042869113
0.00637569 0.12807912 -0.14446948 -0.13824861 -0.0011853335 -0.05851382 -0.04837948 -0.052129477
00000000: 3acc f7bd 7f06 09be 59f5 b9bd 1d8e cebc
00000010: 98dd 18bd 1a65 c93d 2971 183e 007e 873e
00000020: 1751 383e eec0 403e 17d4 45bd 36c7 7b3d
00000030: 3c09 933d 685d 18bc e779 753d 489c 7a3d
00000040: c47b fbbd 6765 88bc 124b 103e b21b 913e
00000050: 46d0 09bf 4740 b3be 9122 bebe 706b 39be
00000060: 183c 2ebe 5712 69be 79db 99be 04b2 73be
00000070: d7c4 d3bd de52 fcbd 9ed8 03be 130d a8bd
00000080: e438 263b aba4 1dbd 77b8 5b3d d0c1 de3d
00000090: 230c 403e fef0 783e 0568 7c3e a409 903e
000000a0: 5180 6dbe 3118 28be 6b4b 76bc 468e 263c
000000b0: 7267 393e 04d0 e43d 774d 023e bf98 613e
000000c0: fdcb 083e 63e7 3e3e f424 77be a795 acbd
000000d0: e496 4bbe 206c 0bbe 4adf 18be 3b1c 9b3d
000000e0: 8b64 573e 0b38 953e 11b6 e03d 9d3c 773e
000000f0: 4838 853e 920d 793d d014 aebc 574a ebbd
00000100: 8533 a5bd 1724 c23d d0b7 033e 8895 1c3e
00000110: b3f8 683e 3bda 9c3e b427 3dbe b442 19be
00000120: 3c33 53be 03dc 61be 5d78 29be 2f68 90bd
00000130: 858d 013d 9d3b b83d 37c6 903e 22a3 063f
00000140: af3c 6bbd 01a3 d83c d8c6 82bb fcfa c9bc
00000150: 27a7 a4bc 4dff 943c 83e1 8b3d bda5 0dbe
00000160: d89c d9bd bfd4 9abe 4b84 01be ba81 903d
00000170: ceff a4bd 0ed9 7d3c 9f31 6f3d 9b50 3ebe
00000180: 975c a93b ee35 7abd 37b7 1f3e f18b 2c3e
00000190: 330e 253e 41ab 61bd a15c f6bc 3f63 41bd
000001a0: 9174 cb3c 3d9b 78ba 94da 413d 7a26 cd3b
000001b0: 2ef8 d13d bc0b 633e 65ac dcbd ce76 aabe
000001c0: cd19 debe 0888 c7be 73aa d2be d08d d9bd
000001d0: 5dbc 17bd 4cc2 083e 2ca3 3f3e d347 953e
000001e0: 6d6c 96bd 959f d9bd 45ba eb3b 0655 773d
000001f0: f304 d1bd 36a7 fabd de05 11be e312 a5bc
00000200: 6278 1b3d 7790 933e b887 7abe cb05 debb
00000210: 4a6c 853d 1b40 58be c240 aabe 2dcd 84be
00000220: f947 f0bd 4beb 43be b112 c7bd ee38 30bd
00000230: e1c5 91be 2be4 53be 6530 57bd b778 22bd
00000240: 406f c6bd 573f 58bd d3f6 89bd 0643 653d
00000250: cd43 3a3e c66f c73e 4ec5 f0bd e62e 763a
00000260: 97bb 1bbc 9899 1e3e deea 633d 2fe2 483e
00000270: 2075 c43d ca0d 1abd c8b8 dabe ad94 11bf
00000280: ec40 08be 8dff 12be 57ac ecbd b8d1 01bc
00000290: 6283 e73b 3afc 153d 8a9a 5ebe a57e 8dbe
000002a0: b99b fcbe 6b82 2dbf f858 983e df3a a53e
000002b0: fb52 823e 268e 993e 2bb4 903e f7bb 4a3e
000002c0: 9391 3f3e 01d8 813e f30b 8d3e 4624 4c3e
000002d0: 439b d53d 70ea cdbc 69b3 3abd c81f 9b3d
000002e0: e399 973d e62c 2d3e 6ac8 31ba f751 b6bd
000002f0: 1b2f 89bd 44a2 41be 7327 77be 2e93 3dbe
00000300: 37a0 14be b53e 07be c0ba 16be 5811 39bd
00000310: 2554 86bd 204c d2bd 6b50 10be 0085 75be
00000320: 50b3 b1be 1671 9ebe 9ace 93be 654e c4be
00000330: 7de8 c9be 03e5 d2be 7414 cbbe 81f7 90be
00000340: cf28 b4be 356f afbe aafa 113e fa52 973c
00000350: a8d3 a33d d262 fd3c db5a 9c3d d795 723c
00000360: 708e 3cbc b00e 083d 1755 753d 1c5a 2a3c
00000370: eada 2abe 07f1 69be e3a8 fcbd a71c 46be
00000380: 028b 68be 37af b9bd 084b 52be c0dc 54be
00000390: 454a babe 4a91 45bf b0a9 ab3e 7e0c 9b3e
000003a0: a71d 253e 2b5b 343e 02fc 773e e311 8b3e
000003b0: 59de 583e 4b69 8a3e 4c52 ff3d 210e 5e3d
000003c0: 876f 843d 7af2 2b3c f595 d83c 5a2a 88bd
000003d0: d321 0bbd 2d14 8e3d 2aee fdbc 3879 8c3b
000003e0: 2aeb d03b 2c27 033e cfef 13be 0b91 0dbe
000003f0: 315d 9bba 30ac 6fbd 9029 46bd b885 55bd

blocks.1.conv.conv.bias f4 [32]
-0.039962918 0.15760857 -0.037896466 -0.17000547 -0.042968784 -0.39451274 -0.0478169 -0.1940577
0.056419585 0.012209126 0.13927673 -0.07507526 0.49094957 -0.029723495 0.10918591 -0.03332878
0.1267728 0.3699998 -0.10241173 -0.15287231 0.120290525 -0.14456153 -0.20668352 0.07564096
0.01601954 0.10879779 0.25163123 0.068227805 0.0770353 -0.050162613 0.30462408 -0.11967497
00000000: 28b0 23bd 2464 213e 5339 1bbd ea15 2ebe
00000010: 0900 30bd 93fd c9be a7db 43bd 10b7 46be
00000020: 3918 673d c908 483c 8f9e 0e3e 0fc1 99bd
00000030: be5d fb3e b07e f3bc dd9c df3d c283 08bd
00000040: bbd0 013e 9d70 bd3e 3ebd d1bd 8f8a 1cbe
00000050: e15a f63d f007 14be d8a4 53be a6e9 9a3d
00000060: 693b 833c 60d1 de3d cfd5 803e 05bb 8b3d
00000070: afc4 9d3d 5077 4dbd b0f7 9b3e 2718 f5bd

blocks.1.bn.weight f4 [32]
0.8557151 0.910565 0.52311975 1.0296502 0.75858146 0.9664111 0.8639791 0.948258
0.8133659 0.9688544 0.9420736 0.855881 1.055176 0.43632054 1.0461029 0.97012067
0.6894596 0.8391701 0.8816642 0.97357416 0.96995145 1.0230248 0.923639 0.830609
0.7089861 0.5637402 0.98370755 1.0193019 0.96156645 0.8169373 0.890093 0.91278154
00000000: 2510 5b3f ca1a 693f 2deb 053f 94cb 833f
00000010: 6532 423f b866 773f bc2d 5d3f 09c1 723f
00000020: bf38 503f d806 783f bc2b 713f 041b 5b3f
00000030: 0210 873f 6865 df3e b3e6 853f d459 783f
00000040: 6d80 303f dad3 563f bfb4 613f 283c 793f
00000050: bd4e 783f 7af2 823f 9b73 6c3f cba2 543f
00000060: 1d80 353f 4751 103f 42d4 7b3f 7c78 823f
00000070: 3829 763f ce22 513f 23dd 633f 0dac 693f

blocks.1.bn.bias f4 [32]
-0.32368642 -0.03265017 -0.5926379 -0.24822997 -0.12689434 -0.54718226 -0.33932167 -0.40187237
-0.25085688 -0.37756348 -0.28231987 -0.3544368 -0.36633384 -0.6232918 -0.10057512 -0.3818723
-0.35409912 -0.26084185 -0.32801867 -0.47980878 -0.32796326 -0.4538832 -0.40210912 -0.38916662
-0.4236299 -0.24860466 -0.43414012 -0.28177938 -0.6127197 -0.5451414 -0.37108096 -0.2760867
00000000: 3aba a5be 2fbc 05bd 1eb7 17bf ff2f 7ebe
00000010: 97f0 01be 2314 0cbf 92bb adbe 37c2 cdbe
00000020: 5070 80be 0050 c1be 3b8c 90be be78 b5be
00000030: 1c90 bbbe 0d90 1fbf 54fa cdbd c484 c3be
00000040: 7b4c b5be 108d 85be 10f2 a7be 7fa9 f5be
00000050: cdea a7be 6163 e8be 3fe1 cdbe d940 c7be
00000060: 05e6 d8be 3892 7ebe 9d47 debe 6345 90be
00000070: 33db 1cbf 638e 0bbf 53fe bdbe 3c5b 8dbe

blocks.1.bn.running_mean f4 [32]
-0.94227034 -1.4496965 0.06263044 -2.2577 -1.2232391 -2.4382498 -1.3725736 -1.4196554
-1.067728 -1.8807571 -1.9197117 -2.1315367 -3.5281277 1.3818532 -2.2869675 -1.9213955
-1.8319992 -2.0535734 -3.0574229 -1.714137 -2.1257145 -1.3532797 -2.5960991 -2.6704001
-1.575405 -1.1807288 -1.0688109 -2.934731 -2.034475 -1.6839882 -1.2777361 -2.161097
00000000: a138 71bf a88f b9bf 6344 803d 287e 10c0
00000010: 1993 9cbf 490c 1cc0 7eb0 afbf 45b7 b5bf
00000020: 50ab 88bf a6bc f0bf 1db9 f5bf 196b 08c0
00000030: d8cc 61c0 91e0 b03f ad5d 12c0 4af0 f5bf
00000040: f37e eabf bf6d 03c0 d1ac 43c0 d768 dbbf
00000050: b50b 08c0 4538 adbf 7d26 26c0 d6e7 2ac0
00000060: dfa6 c9bf 1f22 97bf ccce 88bf a2d2 3bc0
00000070: d734 02c0 ed8c d7bf db8c a3bf 6a4f 0ac0

blocks.1.bn.running_var f4 [32]
8.718504 12.579317 3.316523 6.436911 6.9164143 14.308195 14.429551 5.7093105
7.646294 8.259813 9.469545 8.530829 107.88164 7.643185 18.427334 14.604084
4.5636086 39.724995 35.6375 11.905831 17.273027 11.534304 20.206844 13.487454
10.315173 14.258074 14.293889 34.63763 8.377743 5.319982 4.2981696 14.262446
00000000: fe7e 0b41 e244 4941 ea41 5440 2dfb cd40
00000010: 4453 dd40 5eee 6441 71df 6641 acb2 b640
00000020: 71ae f440 3228 0441 4283 1741 477e 0841
00000030: 66c3 d742 f994 f440 2e6b 9341 54aa 6941
00000040: 1509 9240 65e6 1e42 cd8c 0e42 497e 3e41
00000050: 292f 8a41 828c 3841 9ea7 a141 9dcc 5741
00000060: f30a 2541 1221 6441 c5b3 6441 ef8c 0a42
00000070: 3c0b 0641 4b3d aa40 9b8a 8940 fb32 6441

blocks.2.conv.conv.weight f4 [16, 32, 6]
0.08110857 0.07738598 -0.021398257 -0.05521207 -0.11548369 -0.2605827 -0.050616607 -0.0016419603
-0.0102881575 -0.020118961 -0.019393777 -0.04975956 -0.15760525 -0.054206334 -0.06841067 0.05814811
0.058962695 0.13187575 0.23427743 0.2050812 0.1511826 0.1253179 0.18650632 0.20099957
0.037980534 0.038797077 0.02290092 0.04167542 0.08692284 0.13085687 0.53193116 0.33471942
0.26550585 0.26250046 0.25145078 0.31169266 -0.3670216 -0.19966319 -0.028939424 0.06836275
0.17235932 0.1427187 -0.13953161 -0.18622617 -0.18966988 -0.16062346 -0.17395352 -0.15095207
0.028627483 0.0045327772 0.041957833 0.10834508 0.15127902 0.23135239 -0.15939751 -0.120765634
-0.13970928 -0.2226895 -0.1869598 -0.2560017 0.32471615 0.24463484 0.1804678 0.108470276
0.06731874 0.0021669066 -0.24204041 -0.23094912 -0.1904673 -0.22191705 -0.20422186 -0.22827673
-0.44838527 -0.5074849 -0.5665092 -0.53086597 -0.48217195 -0.3729357 -0.051068395 -0.012204338
-0.012114318 0.0687076 0.06129225 -0.021879597 -0.0854188 -0.115554176 -0.13661398 -0.18418369
-0.16683355 -0.17200696 -0.15655506 -0.15460932 -0.19797441 -0.2636297 -0.3084244 -0.33373928
-0.23198596 -0.1899196 -0.16103174 -0.053681646 0.10603126 0.22823967 -0.20090504 -0.20227358
-0.22142465 -0.34139714 -0.20338094 -0.17316988 0.101095505 0.09671024 0.1100214 0.083755925
0.12350533 0.1578057 0.068054974 0.016723206 0.027882604 -0.0595611 0.064495504 0.1547525
-0.16091365 -0.14881706 -0.16491878 -0.15122598 -0.18662281 -0.16132905 0.54591864 0.27932397
0.37666985 0.3146176 0.2170127 0.4223561 -0.12744772 -0.07146516 -0.06238841 -0.013042917
-0.07530946 -0.20544004 0.30563998 0.2697859 0.30160213 0.32873377 0.3981009 0.4469049
-0.17963041 -0.122449785 -0.040479828 -0.16043343 -0.20148207 -0.27025267 -0.03945151 -0.122635275
-0.24104527 -0.30146876 -0.30151308 -0.18803862 0.34677917 0.21143296 0.21524829 0.16579928
0.1339188 0.30347642 -0.022046309 -0.053279247 -0.08169835 -0.16566676 -0.17280784 -0.12982202
1.2697046 0.77377284 0.85262656 0.7097454 0.69855773 0.7960007 -0.31756088 -0.3472966
-0.38256088 -0.3980523 -0.1805811 -0.0035616495 0.111271285 0.08440491 0.09465399 0.08952246
0.07468225 0.19208178 -0.009466871 -0.004250789 -0.035786647 -0.111983694 -0.18311591 -0.18195547
-0.13952193 -0.16269125 -0.15312673 -0.10820279 0.047437716 0.031339202 -0.011018604 -0.10429775
-0.073714234 -0.13799463 -0.11636828 -0.0872161 -0.03242336 -0.0020667515 -0.06253855 -0.028047815
-0.08136248 -0.1579682 0.06838215 0.08042288 0.0083907945 0.083572246 -0.003694742 -0.057722915
0.028756425 0.07870726 0.0017159189 -0.069492504 0.010032335 0.06775515 -0.81104213 -0.700873
-0.8966311 -0.69444376 -0.64716196 -1.0710007 0.22719537 0.1593498 0.23631255 0.1696687
0.15899645 0.20010883 -0.089103766 -0.06768066 -0.09623216 -0.20520052 -0.13942246 -0.18852526
-0.09092695 -0.07917366 -0.11911827 -0.21860588 -0.16198577 -0.21481456 0.070629865 0.053491626
0.003902194 -0.01919488 0.0646221 -0.02713068 -0.10955344 0.02392634 0.002195038 0.0046800654
00000000: 401c a63d 8a7c 9e3d 664b afbc 0d26 62bd
00000010: b682 ecbd 186b 85be 5c53 4fbd 0c37 d7ba
00000020: a98f 28bc 85d0 a4bc b3df 9ebc aed0 4bbd
00000030: 4563 21be 7607 5ebd e51a 8cbd b62c 6e3d
00000040: de82 713d 700a 073e 6ce6 6f3e ce00 523e
00000050: 9dcf 1a3e 5653 003e 83fb 3e3e d5d2 4d3e
00000060: 7a91 1b3d afe9 1e3d b69a bb3c d8b3 2a3d
00000070: 9a04 b23d 58ff 053e a42c 083f 5860 ab3e
00000080: 62f0 873e 7666 863e 28be 803e 2e96 9f3e
00000090: 41ea bbbe 8274 4cbe 5f12 edbc c501 8c3d
000000a0: f67e 303e da24 123e 60e1 0ebe 13b2 3ebe
000000b0: d238 42be 7a7a 24be df20 32be 2e93 1abe
000000c0: 2f84 ea3c b187 943b fadb 2b3d 06e4 dd3d
000000d0: e3e8 1a3e a4e7 6c3e 1a39 23be f953 f7bd
000000e0: f30f 0fbe b708 64be 6472 3fbe a812 83be
000000f0: 3241 a63e 8e81 7a3e 8dcc 383e aa25 de3d
00000100: 68de 893d a902 0e3b 71d9 77be ed7d 6cbe
00000110: dc09 43be 393e 63be 891f 51be 60c1 69be
00000120: c192 e5be 88ea 01bf bf06 11bf d5e6 07bf
00000130: 3edf f6be 6ef1 bebe 182d 51bd b4f4 47bc
00000140: 227b 46bc 92b6 8c3d 950d 7b3d d73c b3bc
00000150: 0df0 aebd aba7 ecbd 89e4 0bbe a69a 3cbe
00000160: 6ad6 2abe 9822 30be f84f 20be e851 1ebe
00000170: ceb9 4abe 79fa 86be cee9 9dbe e0df aabe
00000180: ba8d 6dbe 497a 42be 81e5 24be 49e1 5bbd
00000190: eb26 d93d a9b7 693e 0dba 4dbe ce20 4fbe
000001a0: 25bd 62be 9bcb aebe 1843 50be 7253 31be
000001b0: 290b cf3d 0510 c63d e652 e13d 3a88 ab3d
000001c0: 5df0 fc3d d197 213e 6860 8b3d 1bff 883c
000001d0: 0f6a e43c 57f6 73bd 3816 843d 7077 1e3e
000001e0: 8cc6 24be 8063 18be 78e0 28be fcda 1abe
000001f0: 0d1a 3fbe 7133 25be 53c1 0b3f 8d03 8f3e
00000200: dfda c03e 8f15 a13e 9438 5e3e 0f3f d83e
00000210: a881 02be 535c 92bd fd8a 7fbd f5b1 55bc
00000220: d93b 9abd e05e 52be d87c 9c3e 6121 8a3e
00000230: 986b 9a3e cb4f a83e e2d3 cb3e b8d0 e43e
00000240: 09f1 37be f4c6 fabd 2dce 25bd a948 24be
00000250: 5151 4ebe 8f5e 8abe e897 21bd 3428 fbbd
00000260: 92d4 76be 1d5a 9abe ec5f 9abe 328d 40be
00000270: 0a8d b13e e281 583e 0c6a 5c3e 49c7 293e
00000280: 0322 093e 4361 9b3e 769a b4bc 573b 5abd
00000290: 7751 a7bd 8ca4 29be 8af4 30be 10f0 04be
000002a0: ae85 a23f fa15 463f bc45 5a3f e0b1 353f
000002b0: aed4 323f b4c6 4b3f 5797 a2be dcd0 b1be
000002c0: 05df c3be 83cd cbbe 40ea 38be 906a 69bb
000002d0: 33e2 e33d 7bdc ac3d f3d9 c13d 8d57 b73d
000002e0: 02f3 983d 16b1 443e ef1a 1bbc 344a 8bbb
000002f0: 0595 12bd b557 e5bd bd82 3bbe 8952 3abe
00000300: d6de 0ebe 8998 26be 41cd 1cbe 6d99 ddbd
00000310: 0d4e 423d 895d 003d 6087 34bc 0f9a d5bd
00000320: 7df7 96bd 774e 0dbe 7e52 eebd 5b9e b2bd
00000330: 5bce 04bd 5672 07bb 3614 80bd 88c4 e5bc
00000340: 5fa1 a6bd 6ac2 21be f10b 8c3d c0b4 a43d
00000350: 8b79 093c ed27 ab3d 7c23 72bb dd6e 6cbd
00000360: 9892 eb3c 4631 a13d afe8 e03a 1652 8ebd
00000370: aa5e 243c 36c3 8a3d 75a0 4fbf 6a6c 33bf
00000380: 9e89 65bf 11c7 31bf 68ac 25bf 8d16 89bf
00000390: e7a5 683e 982c 233e ebfb 713e a2bd 2d3e
000003a0: f7cf 223e 54e9 4c3e 097c b6bd 289c 8abd
000003b0: 5e15 c5bd 1620 52be c3c4 0ebe c40c 41be
000003c0: e937 babd cd25 a2bd 48f4 f3bd 38da 5fbe
000003d0: 99df 25be 59f8 5bbe 64a6 903d 091a 5b3d
000003e0: f4bb 7f3b 953e 9dbc 9758 843d 2941 debc
000003f0: 8e5d e0bd 2c01 c43c a0da 0f3b 3c5b 993b

blocks.2.conv.conv.bias f4 [16]
-0.02913064 -0.010853931 0.05280689 -0.20832562 -0.28312653 -0.11335085 -0.27125832 -0.3656155
0.14655517 -0.03211618 0.24373811 0.26106268 -0.19489232 -0.13195437 -0.014623357 -0.22322236
00000000: 61a3 eebc b0d4 31bc 0a4c 583d 5053 55be
00000010: f6f5 90be 7e24 e8bd 5fe2 8abe f431 bbbe
00000020: 8f12 163e 418c 03bd 7c96 793e 02aa 853e
00000030: da91 47be 0c1f 07be ce96 6fbc 6794 64be

blocks.2.bn.weight f4 [16]
4.0182757 3.0184152 4.827742 4.1282578 4.551123 3.372922 3.0648675 3.9359677
2.4774287 4.1056724 2.6890411 4.0518675 2.7146974 4.227471 2.3908412 3.4430394
00000000: b795 8040 b72d 4140 dd7c 9a40 b01a 8440
00000010: cda2 9140 f4dd 5740 ca26 4440 e5e6 7b40
00000020: 318e 1e40 ab61 8340 4019 2c40 e6a8 8140
00000030: 9abd 2d40 7147 8740 8b03 1940 c25a 5c40

blocks.2.bn.bias f4 [16]
-0.657097 1.6746064 -0.98186284 -0.46662644 -0.46330804 1.3833071 0.4651827 -0.8942827
1.4105773 -0.81353986 1.6192337 -0.4731335 1.6117483 -0.46603912 1.5178124 1.389693
00000000: 8237 28bf 8159 d63f 5d5b 7bbf a9e9 eebe
00000010: b636 edbe 3510 b13f 6d2c ee3e b6ef 64bf
00000020: cc8d b43f 2644 50bf 0d43 cf3f 8e3e f2be
00000030: c54d ce3f ae9c eebe ad47 c23f 76e1 b13f

blocks.2.bn.running_mean f4 [16]
-0.49410605 -0.82877326 -0.6370119 -0.96424985 -1.0161618 -0.7571759 -0.9321484 -0.9167819
1.1574322 -0.5497834 1.5121593 -0.3740316 1.0523545 -0.86298895 0.2589372 -1.0054172
00000000: 78fb fcbe 7c2a 54bf 3613 23bf 14d9 76bf
00000010: 9711 82bf 48d6 41bf 47a1 6ebf 38b2 6abf
00000020: bd26 943f 9bbe 0cbf 708e c13f 1281 bfbe
00000030: 8db3 863f d8ec 5cbf 6b93 843e 83b1 80bf

blocks.2.bn.running_var f4 [16]
0.09136857 0.17694905 0.13086067 0.18356057 0.17900653 0.10578375 0.10615944 0.06869349
0.13921869 0.09610311 0.26610968 0.12880185 0.25506598 0.1735839 0.3354486 0.106712565
00000000: 721f bb3d 2232 353e 5700 063e 4df7 3b3e
00000010: 7d4d 373e 27a5 d83d 1f6a d93d 2caf 8c3d
00000020: 588f 0e3e b5d1 c43d 873f 883e a2e4 033e
00000030: 0298 823e fabf 313e ebbf ab3e 1e8c da3d

cam_layer.weight f4 [4, 16]
-3.0949943 1.8077782 -4.8708706 -4.066502 -3.8494341 1.5360022 -0.45199955 -2.4299371
0.9413606 -2.9903748 1.4731181 -3.4711728 1.5014014 -4.245012 1.7248615 1.717268
-1.5237302 0.55548185 -0.79534715 -0.80940247 -0.6670495 0.58112603 1.8122556 -1.9915224
0.8507322 -1.7861139 0.68385 -1.2641803 0.80397034 -0.97576886 0.27648097 0.19987378
0.6300466 -0.7043551 0.76398873 0.35250467 0.73209125 -0.5745849 0.45974395 0.38854504
-0.31372985 0.49996 -0.4345123 0.39138818 -0.43562156 0.3258846 -0.3728285 -0.7156625
1.6812048 -1.0499166 1.0612602 1.5113297 1.497835 -1.5484185 -1.6035341 1.9816532
-1.4263146 1.6703209 -1.3147405 1.5440942 -1.2343276 1.3455536 -1.1935968 -1.6648107
00000000: 6314 46c0 4765 e73f 2cde 9bc0 c920 82c0
00000010: 215d 76c0 b89b c43f 7c6c e7be 1784 1bc0
00000020: 02fd 703f 4d62 3fc0 228f bc3f b227 5ec0
00000030: ec2d c03f 23d7 87c0 43c8 dc3f 70cf db3f
00000040: 9709 c3bf 0f34 0e3f df9b 4bbf 0035 4fbf
00000050: c2c3 2abf adc4 143f fef7 e73f 35ea febf
00000060: 96c9 593f 619f e4bf cb10 2f3f a9d0 a1bf
00000070: 00d1 4d3f fdcb 79bf ea8e 8d3e b6ab 4c3e
00000080: bc4a 213f 9e50 34bf c494 433f 7e7b b43e
00000090: 556a 3b3f ff17 13bf 8f63 eb3e 60ef c63e
000000a0: 33a1 a0be c2fa ff3e 6578 debe 0864 c83e
000000b0: ca09 dfbe 59da a63e 61e3 bebe a835 37bf
000000c0: b831 d73f ab63 86bf 60d7 873f 4073 c13f
000000d0: 0fb9 bf3f 9432 c6bf 9b40 cdbf d0a6 fd3f
000000e0: 7a91 b6bf 13cd d53f 6b49 a8bf e1a4 c53f
000000f0: 72fe 9dbf 1a3b ac3f c8c7 98bf 8418 d5bf
