python/models/mlp_10_sim.pt (torch_old, 4073 bytes, 16 tensors)

0.weight f4 [10, 7]
0	0x3d0ca3d8	0.03433594
1	0x3ecc0469	0.39847115
2	0xbcf64fc5	-0.030067334
3	0x3ed32be5	0.41244426
4	0xbf42fbb4	-0.7616532
5	0x3ce080f3	0.027405238
6	0xbf02dc92	-0.51117814
7	0xbdefddb8	-0.11712211
8	0xbecc8760	-0.39947033
9	0xbf10cc08	-0.56561327
10	0xbe59e551	-0.21278884
11	0x3f55059a	0.8321167
12	0x3dd62742	0.104567066
13	0x3e0954b8	0.13411224
14	0xbe417d33	-0.18895416
15	0xbd3b7689	-0.04576734
16	0xbe81ce67	-0.25352785
17	0xbe4a912f	-0.19781946
18	0xbd8e9123	-0.069612764
19	0x3dc1c3d3	0.09461179
20	0x3dce9ccb	0.100885
21	0xbe01db13	-0.12681226
22	0xbe884bdd	-0.2662038
23	0x3e39ce13	0.18145017
24	0x3eca7e51	0.39549497
25	0x3e5a1532	0.21297148
26	0x3d7f53d3	0.0623358
27	0x3da17358	0.07883328
28	0x3e1dbc4f	0.15403865
29	0xbd46e576	-0.048558675
30	0x3e4da120	0.20080996
31	0x3e76a8e8	0.2408787
32	0xbd90c37e	-0.07068537
33	0xbe1f91da	-0.15582982
34	0xbda5b683	-0.08091452
35	0x3e5ce5fc	0.21572107
36	0x3e85f0e7	0.26160356
37	0xbe2a2bfc	-0.16618341
38	0x3e7c3521	0.24629642
39	0xbef408f8	-0.47663093
40	0xbe476a3c	-0.19474119
41	0xbe902382	-0.2815209
42	0xbd5b5904	-0.05355169
43	0xbe033e2d	-0.12816687
44	0x3e94c7d7	0.29058716
45	0xbdef829a	-0.11694832
46	0xbd02d5c7	-0.031942155
47	0xbf016b72	-0.50554574
48	0x3e2c1f5c	0.16808838
49	0x3e2f41db	0.17114966
50	0x3d0efdb1	0.034909908
51	0x3e9035f9	0.28166178
52	0xbc2ba212	-0.010475652
53	0x3e50b1c9	0.2038032
54	0x3ec69774	0.38787425
55	0x3cf9b110	0.030479938
56	0xbeae621f	-0.34059235
57	0xbf0928bd	-0.53577787
58	0xbe88eb4e	-0.26742023
59	0xbea71487	-0.3263285
60	0x3ef93bf1	0.48678544
61	0x3e0d0bb4	0.13773996
62	0x3dc1bc2f	0.09459721
63	0xbeb9970e	-0.36248058
64	0xbce02d7a	-0.027365435
65	0xbe750f49	-0.23931612
66	0x3dc3e52e	0.09565197
67	0x3cef3860	0.029201686
68	0xbd8a79cb	-0.067615114
69	0xbccd477e	-0.025058504

1.weight f4 [10]
0	0x3f7ff56d	0.99983865
1	0x3f786a12	0.9703685
2	0x3f81b67d	1.0133816
3	0x3f77bd55	0.9677327
4	0x3f7096fc	0.93980384
5	0x3f59cc29	0.8507715
6	0x3f9e2b5b	1.2356981
7	0x3f50d825	0.8157981
8	0x3f4b6511	0.7945109
9	0x3f67339e	0.90313137

1.bias f4 [10]
0	0xbeda467e	-0.42631906
1	0x3de1310c	0.10995683
2	0x3e7a6c08	0.24455273
3	0x3e2f1c5a	0.17100659
4	0xbe041cf1	-0.12901665
5	0x3de5be09	0.11217887
6	0x3e2255ee	0.15853092
7	0x3ec3be7f	0.38231274
8	0x3d3eaf3f	0.046553846
9	0x3e128453	0.1430829

1.running_mean f4 [10]
0	0xc29bcbf8	-77.89838
1	0x40edff63	7.437425
2	0xc1255206	-10.332525
3	0xc097f7a4	-4.7489796
4	0x40a91e83	5.2849746
5	0xc19a5cf6	-19.295391
6	0xbbfe97f6	-0.00776958
7	0x423c8805	47.13283
8	0xc208ffee	-34.24993
9	0xc280a167	-64.31524

1.running_var f4 [10]
0	0x44322df5	712.7181
1	0x4246bd0b	49.684612
2	0x42085f73	34.093212
3	0x418f92ae	17.94662
4	0x41e73851	28.902498
5	0x435bdd4f	219.86449
6	0x409f0115	4.968882
7	0x42e65fe8	115.18732
8	0x42a01e46	80.05913
9	0x43271b00	167.10547

3.weight f4 [10, 10]
0	0x3d6765e5	0.05649366
1	0xbdeac428	-0.11463195
2	0xbef7bb08	-0.4838488
3	0x3e912023	0.2834483
4	0x3da9e8eb	0.08296379
5	0xbda1ee92	-0.07906832
6	0xbea20e89	-0.31651714
7	0x3d34b24e	0.044115357
8	0x3bcda996	0.0062763197
9	0xbda4168b	-0.08012112
10	0xbdbc34c4	-0.09189752
11	0x3d269a92	0.040674753
12	0xbe8e5dd6	-0.27805966
13	0x3cfc6ed0	0.030814558
14	0xbda68fdc	-0.08132908
15	0x3ea3d9a5	0.32001987
16	0xbe7670d6	-0.24066481
17	0xbe3e4a83	-0.18583111
18	0xbe683299	-0.22675551
19	0x3e34a7d9	0.17642154
20	0x3d8ddb9f	0.06926655
21	0x3df31206	0.11868672
22	0xbe61690d	-0.2201273
23	0x3c37ea89	0.011225351
24	0x3eb1ca0b	0.3472446
25	0x3c2580c0	0.010101497
26	0xbd837d39	-0.06420369
27	0x3e0de6df	0.13857602
28	0x3de91e74	0.113827616
29	0x3ddfed11	0.10933889
30	0xbe30df2b	-0.17272632
31	0xbcf346d2	-0.029696856
32	0xbe83e8fd	-0.25763693
33	0xbe87eec0	-0.2654934
34	0x3e1121c8	0.14173043
35	0x3e415671	0.18880631
36	0xbdbe8420	-0.093025446
37	0xbe4548ad	-0.19266005
38	0xbed679b9	-0.41889742
39	0xbe97b33b	-0.2962893
40	0xbdec8661	-0.11549068
41	0xbeafefe9	-0.34362724
42	0xbe02eeca	-0.12786403
43	0xbb40f7f1	-0.002944466
44	0x3d77fe50	0.060545266
45	0x3d74b690	0.059744418
46	0xbe878976	-0.26472062
47	0xbe7983a4	-0.24366623
48	0x3dea6d58	0.11446637
49	0x3da674da	0.081277564
50	0xbef90c93	-0.48642406
51	0xbdfec157	-0.124392204
52	0x3dda19d9	0.10649461
53	0xbea1e34c	-0.31618726
54	0xbe1d767d	-0.15377231
55	0xbda5c533	-0.080942534
56	0xbeaa698e	-0.33283657
57	0xbe3dbb34	-0.18528444
58	0x3d24eeeb	0.040266912
59	0x3e02447f	0.12721442
60	0xbd8ba9b9	-0.068194814
61	0xbdd86d1a	-0.105676845
62	0xbd5d01cc	-0.05395679
63	0xbe3219c4	-0.17392641
64	0xbe83c248	-0.25734162
65	0x3ce51350	0.02796331
66	0x3e404896	0.1877769
67	0xbe59a651	-0.21254851
68	0xbd268d98	-0.040662378
69	0x3e61891a	0.22024956
70	0xbece21ff	-0.40260312
71	0x3dacf447	0.0844503
72	0xbe1d0fdf	-0.15338086
73	0xbd484c0b	-0.048900645
74	0xbd623972	-0.055230565
75	0xbed7dfc6	-0.42162913
76	0xbe921649	-0.28532627
77	0x3d83c38e	0.064337835
78	0x3dbdbe00	0.09264755
79	0xbbfbe705	-0.007687452
80	0xbe3f76f5	-0.18697722
81	0x3e9455d6	0.28971738
82	0x3e3b420b	0.18286912
83	0x3e9e9ae7	0.30977556
84	0xbea3d969	-0.32001808
85	0xbdffef40	-0.12496805
86	0x3ce65d40	0.028120637
87	0xbbd74b21	-0.0065702354
88	0x3e813ca2	0.25241572
89	0x3c9ca08d	0.019119525
90	0x3e9080b4	0.28223193
91	0x3d248e91	0.040175024
92	0x3c68f193	0.014217752
93	0xbe010ba0	-0.12602091
94	0xbebfe42e	-0.37478775
95	0xbe62f9ca	-0.221656
96	0xbe882f9a	-0.26598817
97	0xbe7d39b6	-0.24729046
98	0x3cf85bb6	0.030317169
99	0x3e0dd261	0.13849784

4.weight f4 [10]
0	0x3f856aaf	1.0423182
1	0x3f6b289c	0.9185884
2	0x3f8d1fd6	1.102534
3	0x3f4ed5b2	0.80794823
4	0x3f84bb50	1.0369663
5	0x3f631307	0.8870091
6	0x3f53fa41	0.8280373
7	0x3f8f4a45	1.119454
8	0x3f893cc9	1.0721675
9	0x3f70b313	0.94023246

4.bias f4 [10]
0	0xbea21836	-0.31659096
1	0xbe9c4a6e	-0.30525535
2	0xbe713bec	-0.23558015
3	0x3e357e56	0.17723975
4	0x3db1a1f7	0.086734705
5	0x3e86af8a	0.263058
6	0xbc3e67d7	-0.011621437
7	0x3e8e9d86	0.27854556
8	0x3ddee3dd	0.10883305
9	0xbcff4256	-0.031159561

4.running_mean f4 [10]
0	0xbec9060f	-0.39262435
1	0xbe9278ab	-0.28607687
2	0x3e525e39	0.20543756
3	0xbf27970a	-0.6546484
4	0xbee39e2a	-0.44456607
5	0xbf185822	-0.5950948
6	0xbe339ac9	-0.17539515
7	0xbef3d1cc	-0.47621
8	0x3e9f943b	0.31167778
9	0xbee17363	-0.44033346

4.running_var f4 [10]
0	0x3e1be83a	0.15225306
1	0x3e7e893e	0.24857041
2	0x3d39af85	0.045333404
3	0x3ef547d4	0.47906363
4	0x3eaeb0bb	0.3411921
5	0x3e05cfc8	0.13067544
6	0x3da977ba	0.08274789
7	0x3d2eebdf	0.042705413
8	0x3f0d9a15	0.55313236
9	0x3e043079	0.12909116

6.weight f4 [10, 10]
0	0xbe02601a	-0.12731972
1	0xbe301083	-0.17193799
2	0x3e8b0b77	0.27157184
3	0x3e3a8065	0.18213041
4	0xbd9f10cd	-0.07766876
5	0x3e7b9119	0.24567069
6	0xbc993c70	-0.018705577
7	0xbe83116e	-0.25599235
8	0xbeaaf43a	-0.33389455
9	0xbe6700e9	-0.22558941
10	0xbef4b1f8	-0.4779203
11	0x3d397e49	0.04528645
12	0x3d5768da	0.05259023
13	0x3e329ab6	0.1744183
14	0xbe7f20a1	-0.2491479
15	0x3d811d78	0.06304449
16	0x3c3425db	0.010995354
17	0xbe28fb69	-0.16502155
18	0x3ea0fc4a	0.3144248
19	0xbd55ea3f	-0.052225348
20	0xbde0a717	-0.1096937
21	0xbe7e7a07	-0.24851237
22	0xbebb6a28	-0.36604428
23	0xbe535086	-0.20636186
24	0xbcf97b30	-0.030454248
25	0xbd116469	-0.03549615
26	0xbdbcfacf	-0.092275254
27	0xbda7e817	-0.081985645
28	0xbd4cf11f	-0.05003464
29	0x3e126a99	0.14298476
30	0x3e24cae4	0.16093022
31	0x3e93323b	0.2874926
32	0xbd179784	-0.03700973
33	0xbda8da7f	-0.082448
34	0x3e2b32ef	0.16718648
35	0x3edd15b3	0.43180618
36	0x3d57f12f	0.052720245
37	0xbde15db5	-0.11004201
38	0xbda385c7	-0.079845004
39	0x3e5c5eb7	0.21520506
40	0xbdf76fc4	-0.120818645
41	0xbe23efc5	-0.16009434
42	0xbe29a52e	-0.16566917
43	0x3e16a091	0.14709689
44	0xbe88ccee	-0.2671885
45	0xbda217c5	-0.0791469
46	0xbd862bcc	-0.06551322
47	0x3bdba357	0.0067028212
48	0x3e710aee	0.23539326
49	0x3e223214	0.15839416
50	0xbe123314	-0.14277297
51	0xbe5c08bd	-0.21487708
52	0xbd81725b	-0.0632064
53	0x3d619be7	0.05508032
54	0xbe826443	-0.2546712
55	0x3ecd135d	0.40053836
56	0x3d195133	0.037430953
57	0x3ebf61a0	0.3737917
58	0xbe6aaf31	-0.22918393
59	0xbe9a1faf	-0.30102298
60	0x3eabc04c	0.33545148
61	0xbcdce5b7	-0.026965005
62	0xbd690792	-0.056891985
63	0x3e943352	0.28945404
64	0x3e92fc11	0.28707936
65	0x3d7e5d5f	0.062100764
66	0x3e85f1ad	0.26160946
67	0xbe7fadec	-0.2496869
68	0xbd49ba85	-0.049250145
69	0xbea9a3dd	-0.3313283
70	0xbeb56a6a	-0.3543275
71	0xbe7898b2	-0.24276999
72	0x3d31e510	0.04343134
73	0xbe2750c2	-0.163394
74	0x3ceb7f48	0.028747216
75	0xbd038b73	-0.03211541
76	0xbde99bad	-0.11406646
77	0xbe4be723	-0.1991239
78	0x3e8a49ed	0.27009526
79	0xbe021dfa	-0.12706748
80	0x3d28bbe0	0.041194797
81	0xbec4f9a1	-0.38471702
82	0x3d071176	0.032975636
83	0x3c4ed955	0.012625058
84	0xbe8352e4	-0.25649178
85	0xbde7a99f	-0.113116495
86	0x3ca1ec6a	0.019766051
87	0x3e7b0922	0.24515203
88	0xbe0af171	-0.13568665
89	0x3e3923ef	0.18080114
90	0xbd03bac6	-0.032160543
91	0xbe521913	-0.20517378
92	0xbe857ab4	-0.26070178
93	0xbd8f9931	-0.07011641
94	0x3aa4bc68	0.0012568356
95	0xbd958ca0	-0.07302213
96	0xbd604c78	-0.054760426
97	0xbcc28d4d	-0.023749018
98	0x3e36887b	0.178255
99	0xbc96fab9	-0.0184301

7.weight f4 [10]
0	0x3fb42504	1.4073796
1	0x3fbb4b6e	1.4632394
2	0x3fbb595c	1.4636645
3	0x3fce47e3	1.6115688
4	0x3fb789d5	1.4338938
5	0x3fb6b8ac	1.4275107
6	0x3fb1d538	1.3893194
7	0x3fba052b	1.4532827
8	0x3fca84c2	1.5821764
9	0x3fbcfdb8	1.4764929

7.bias f4 [10]
0	0x3ed61f71	0.41820863
1	0x3f11edbe	0.5700339
2	0x3f19248d	0.598214
3	0x3f25fb33	0.64836425
4	0x3f0fe98f	0.5621576
5	0x3f3f97c4	0.7484095
6	0x3ee3387c	0.44379032
7	0x3f158474	0.5840523
8	0x3f2b7ea2	0.669901
9	0x3f16eb12	0.5895244

7.running_mean f4 [10]
0	0xbe7771b2	-0.24164465
1	0xbdb355da	-0.08756609
2	0xbeda67de	-0.4265737
3	0x3ec8c840	0.3921528
4	0xbdb4791d	-0.08812163
5	0xbca50dab	-0.020148119
6	0x3e336f38	0.17522895
7	0xbe9e9cc0	-0.30978966
8	0xbde931ca	-0.1138645
9	0xbe39a7a8	-0.18130362

7.running_var f4 [10]
0	0x3e26f6a6	0.16305026
1	0x3dfd61ec	0.12372193
2	0x3e0dbc59	0.1384138
3	0x3e700dd7	0.2344278
4	0x3e05015f	0.12988804
5	0x3e30eabb	0.17277043
6	0x3e32fe02	0.17479709
7	0x3e3f48d1	0.18680121
8	0x3d6edfc4	0.05831887
9	0x3df45ef8	0.11932176

9.weight f4 [1, 10]
0	0x3ebf984d	0.37420884
1	0x3f343384	0.70391107
2	0x3ef9a761	0.48760512
3	0x3f5fef15	0.87474185
4	0x3f3b469e	0.7315463
5	0x3ef437fa	0.47698957
6	0x3eca8091	0.39551213
7	0x3f21d6cb	0.63218373
8	0x3eead657	0.45866653
9	0x3f35b89e	0.7098483
