python/models/mlp_10_exp.pt (torch_old, 4073 bytes, 16 tensors)

0.weight f4 [10, 7]
0.030080168 0.5249898 -0.0310334 0.53493047 -0.94481426 0.08280052 -0.49739578 -0.13632096
-0.06902967 -0.57959974 0.10589938 0.4429061 0.21248032 0.15603109 -0.20888184 0.2452822
-0.16523713 0.16084214 -0.46297616 0.1512394 0.09593055 -0.17924868 -0.08494161 0.15615912
0.6320958 -0.102017045 0.12575236 0.085206024 0.21404564 -0.030828245 0.16562863 0.13972431
0.12478949 -0.16540478 -0.08700057 0.24656558 0.17607644 -0.49449554 -0.12448878 -0.037592553
-0.2643581 -0.27166986 -0.13526925 -0.124355085 0.2583427 -0.09642504 -0.06984951 -0.3362652
0.21340945 0.07744643 0.07269326 0.45845768 0.07658387 0.16573595 0.5575504 -0.0021286393
-0.43128115 -0.21833283 -0.14509766 -0.010576649 0.23015574 0.2154267 0.05152757 -0.4336633
0.052937333 -0.1813392 0.15303712 -0.03477733 -0.021451721 -0.017655117
00000000: af6a f63c bb65 063f c239 febc 34f1 083f
00000010: 59df 71bf 5293 a93d a9aa febe b997 0bbe
00000020: 6d5f 8dbd a660 14bf c6e1 d83d 97c4 e23e
00000030: 7194 593e 9dc6 1f3e 1fe5 55be 422b 7b3e
00000040: ec33 29be cdb3 243e 360b edbe 80de 1a3e
00000050: 3c77 c43d f78c 37be def5 adbd 2de8 1f3e
00000060: 08d1 213f 50ee d0bd 3ac5 003e 7f80 ae3d
00000070: c82e 5b3e 848b fcbc 8d9a 293e e413 0f3e
00000080: a291 ff3d df5f 29be 5b2d b2bd b07b 7c3e
00000090: 624d 343e 852e fdbe f9f3 febd a6fa 19bd
000000a0: f259 87be 5018 8bbe 0684 0abe e1ad febd
000000b0: 7f45 843e 7e7a c5bd 430d 8fbd f42a acbe
000000c0: 0288 5a3e 3c9c 9e3d 34e0 943d f7ba ea3e
000000d0: 01d8 9c3d afb6 293e 9fbb 0e3f a480 0bbb
000000e0: e2d0 dcbe a492 5fbe 7b94 14be ae49 2dbc
000000f0: f2ad 6b3e d198 5c3e 930e 533d 1e09 debe
00000100: d1d4 583d fcb0 39be c3b5 1c3e ac72 0ebd
00000110: 85bb afbc 77a1 90bc

1.weight f4 [10]
0.9517003 0.9831975 1.1418238 1.0297897 0.89393145 0.70486695 1.1378998 0.8005677
0.86268574 0.8923927
00000000: a2a2 733f d5b2 7b3f 4827 923f 26d0 833f
00000010: b1d8 643f 2972 343f b3a6 913f 01f2 4c3f
00000020: f9d8 5c3f d973 643f

1.bias f4 [10]
-0.6245353 0.10069643 0.32669303 0.13448831 -0.18914625 0.041385785 0.13100925 0.33593616
-0.1082382 0.1556126
00000000: 8ce1 1fbf ee39 ce3d 4f44 a73e 4eb7 093e
00000010: 8eaf 41be 2484 293d 4a27 063e d3ff ab3e
00000020: fdab ddbd e958 1f3e

1.running_mean f4 [10]
-62.374306 12.897271 -7.603219 -5.660846 9.141521 -15.893576 1.0528404 28.476221
-38.24502 -55.87866
00000000: 4a7f 79c2 395b 4e41 924d f3c0 a725 b5c0
00000010: ac43 1241 164c 7ec1 79c3 863f 4dcf e341
00000020: e7fa 18c2 bf83 5fc2

1.running_var f4 [10]
121.7759 12.481852 30.810492 23.094872 35.25894 36.506523 11.257197 41.277042
207.45601 279.20175
00000000: 438d f342 aab5 4741 e37b f641 4cc2 b841
00000010: 2809 0d42 ae06 1242 7b1d 3441 b11b 2542
00000020: bd74 4f43 d399 8b43

3.weight f4 [10, 10]
0.0753957 -0.13309388 -0.5768555 0.19266208 0.21339248 0.039229248 -0.24698986 0.09753711
0.033739667 -0.06823395 -0.14235255 0.11033892 -0.4193167 -0.06988384 -0.1137902 0.29324624
-0.08219498 -0.34012434 -0.26676887 0.09327309 -0.085392475 0.11675009 -0.13669503 0.099426955
0.46556997 -0.0033058918 -0.20749994 0.19382527 0.18554093 0.04509343 -0.23926494 0.16540939
-0.0076832254 -0.03501501 0.16706884 0.26132816 0.10975352 -0.10429802 -0.6805414 -0.5298986
-0.12390897 -0.4051601 -0.24696079 -0.11463189 -0.049912486 0.009973884 -0.25113237 -0.2674134
0.0609138 0.07314039 -0.50350153 -0.31776145 0.041501716 -0.38814625 -0.13390349 -0.17515178
-0.2988224 -0.102478676 -0.013346277 0.1257919 -0.018640412 -0.20881332 -0.21944055 -0.29487297
-0.21573903 0.0025001292 0.17175312 -0.20657828 -0.07021833 0.25250217 -0.56552774 0.15521903
-0.26771307 -0.07859075 0.008770122 -0.35114717 -0.20584649 0.048537318 -0.00031106194 -0.111524135
-0.13264197 0.19076559 0.36179096 0.34253204 -0.36881417 -0.13677315 -0.04825334 -0.016014043
0.3720732 0.10082051 0.39000228 -0.11091839 -0.02140148 -0.2212867 -0.22030053 -0.071981125
-0.3807409 -0.21991692 0.079519324 0.1941994
00000000: 1069 9a3d c349 08be cdac 13bf 3549 453e
00000010: 8f83 5a3e d9ae 203d e9ea 7cbe 89c1 c73d
00000020: 9b32 0a3d 3ebe 8bbd dec4 11be 5ff9 e13d
00000030: aeb0 d6be 421f 8fbd d60a e9bd 5f24 963e
00000040: d755 a8bd c724 aebe ee95 88be f605 bf3d
00000050: 40e2 aebd ac1a ef3d c8f9 0bbe 5ca0 cb3d
00000060: 305f ee3e a9a7 58bb dd7a 54be 227a 463e
00000070: 71fe 3d3e e3b3 383d de01 75be 1461 293e
00000080: 91c3 fbbb e66b 0fbd 1814 2b3e cecc 853e
00000090: 74c6 e03d 339a d5bd f637 2ebf 6fa7 07bf
000000a0: fcc3 fdbd 2571 cfbe 4ae3 7cbe 20c4 eabd
000000b0: 0971 4cbd 8069 233c 6c94 80be 69ea 88be
000000c0: c080 793d a1ca 953d 7ae5 00bf a1b1 a2be
000000d0: b4fd 293d 1bbb c6be ff1d 09be fd5a 33be
000000e0: 40ff 98be 57e0 d1bd 58aa 5abc 98cf 003e
000000f0: c7b3 98bc 29d3 55be 06b5 60be 97f9 96be
00000100: b1ea 5cbe 35d9 233b 0de0 2f3e 4289 53be
00000110: a1ce 8fbd f747 813e 6dc6 10bf bdf1 1e3e
00000120: b011 89be 30f4 a0bd 8fb0 0f3c 90c9 b3be
00000130: 6cc9 52be 11cf 463d 0716 a3b9 c466 e4bd
00000140: 4cd3 07be 0e58 433e aa3c b93e 5c60 af3e
00000150: 36d5 bcbe 430e 0cbe 4ba5 45bd e22f 83bc
00000160: 6180 be3e fc7a ce3d 61ae c73e 2e29 e3bd
00000170: 2852 afbc fb98 62be 7696 61be d76a 93bd
00000180: 79f0 c2be e731 61be 07db a23d 35dc 463e

4.weight f4 [10]
1.0126776 0.8483591 1.0921497 0.60056275 1.0244386 0.8457174 0.816921 1.0797163
1.1763035 0.9562697
00000000: 6b9f 813f 102e 593f 90cb 8b3f 7bbe 193f
00000010: ce20 833f ef80 583f bc21 513f 2534 8a3f
00000020: 1d91 963f 17ce 743f

4.bias f4 [10]
-0.4848448 -0.4521479 -0.24457806 0.08730319 0.22319974 0.37944087 0.13463841 0.31026202
0.20341557 -0.03199559
00000000: 943d f8be ee7f e7be ac72 7abe 04cc b23d
00000010: 798e 643e 1346 c23e a7de 093e aada 9e3e
00000020: 2c4c 503e cf0d 03bd

4.running_mean f4 [10]
-0.38050786 -0.4966806 0.20584933 -0.27047244 -0.6780156 -0.6687815 -0.3957745 -0.49733415
0.4621087 -0.42113087
00000000: edd1 c2be eb4c febe 2bca 523e 5d7b 8abe
00000010: 6e92 2dbf 4435 2bbf f5a2 cabe 95a2 febe
00000020: 8399 ec3e 779e d7be

4.running_var f4 [10]
0.30832762 0.13849619 0.1402315 0.42802167 0.23002535 0.12574925 0.088301376 0.18245198
0.57847273 0.1661362
00000000: 1edd 9d3e f2d1 0d3e d998 0f3e a825 db3e
00000010: c48b 6b3e 69c4 003e 5ad7 b43d b1d4 3a3e
00000020: ca16 143f 9c1f 2a3e

6.weight f4 [10, 10]
-0.24847959 -0.33340278 0.2072079 0.092996135 -0.15891895 0.1723939 0.0059841983 -0.14934544
-0.47227293 -0.3270205 -0.47487083 0.0007424812 0.091801904 0.17414898 -0.29584077 0.08544254
-0.11379267 -0.093958646 0.45119363 -0.077168986 -0.23961264 -0.24154279 -0.45895103 -0.20727862
0.022604326 0.03455979 -0.095855914 -0.09325422 -0.08814711 0.18336941 0.12760088 0.18025406
0.004251682 -0.09286637 0.21712454 0.48578382 0.035215616 -0.15409091 -0.120969236 0.25942072
-0.31203678 -0.15135019 -0.2932792 0.06914831 -0.24138604 -0.09981826 -0.045547396 0.0015572667
0.31124005 0.13646816 -0.12962504 -0.27097186 0.009534793 0.1272129 -0.2549616 0.3474577
-0.107810766 0.48143458 -0.3291722 -0.3299034 0.1947045 -0.22658356 -0.09972141 0.120836236
0.35098627 -0.0067679593 0.36721686 -0.35029495 -0.2308336 -0.37107298 -0.3939576 -0.27651182
0.06237117 -0.1341463 0.008382777 -0.08428048 -0.18570922 -0.13966632 0.32099724 -0.17297444
-0.068593085 -0.5063394 -0.007920253 -0.09177814 -0.3372236 -0.19356698 -0.08531602 0.30975634
-0.01300843 0.15293717 -0.17342754 -0.205883 -0.38065186 -0.13915375 0.039438732 -0.11478437
-0.09093185 -0.034975786 0.21479021 -0.02137647
00000000: 6f71 7ebe c5b3 aabe 4f2e 543e c274 be3d
00000010: a6bb 22be 0788 303e 1817 c43b 03ee 18be
00000020: c2cd f1be 3b6f a7be 4522 f3be 12a3 423a
00000030: a302 bc3d 1c54 323e 7178 97be 80fc ae3d
00000040: 220c e9bd 646d c0bd da02 e73e c60a 9ebd
00000050: 045d 75be fe56 77be a1fb eabe d940 54be
00000060: b52c b93c 918e 0d3d 1b50 c4bd 12fc bebd
00000070: 7986 b4bd 31c5 3b3e cea9 023e 8594 383e
00000080: b251 8b3b b930 bebd e555 5e3e a8b8 f83e
00000090: 403e 103d 02ca 1dbe b8be f7bd cbd2 843e
000000a0: 49c3 9fbe 8bfb 1abe b128 96be a19d 8d3d
000000b0: e72d 77be 846d ccbd e88f 3abd 331d cc3a
000000c0: db5a 9f3e 4fbe 0b3e 6dbc 04be d3bc 8abe
000000d0: d237 1c3c 1944 023e 548a 82be fae5 b13e
000000e0: e4cb dcbd 987e f63e 4289 a8be 19e9 a8be
000000f0: 9e60 473e 8505 68be bd3a ccbd fd78 f73d
00000100: 79b4 b33e c2c5 ddbb d903 bc3e dc59 b3be
00000110: a55f 6cbe 47fd bdbe d0b4 c9be f592 8dbe
00000120: e978 7f3d a65d 09be ea57 093c 3f9b acbd
00000130: 8f2a 3ebe b004 0fbe c059 a43e 3620 31be
00000140: 887a 8cbd 759f 01bf f3c3 01bc 2df6 bbbd
00000150: 92a8 acbe 6c36 46be 2aba aebd 6298 9e3e
00000160: 4f21 55bc 909b 1c3e fd96 31be fed2 52be
00000170: cde4 c2be 527e 0ebe 828a 213d 1114 ebbd
00000180: 7a3a babd c542 0fbd f7f1 5b3e b51d afbc

7.weight f4 [10]
1.3811375 1.4749016 1.4589622 1.3783159 1.4248929 1.5238742 1.390106 1.4625531
1.5544729 1.4714733
00000000: 1dc9 b03f 93c9 bc3f 46bf ba3f a86c b03f
00000010: e462 b63f 4f0e c33f feee b13f f134 bb3f
00000020: f8f8 c63f 3d59 bc3f

7.bias f4 [10]
0.64057195 0.6749222 0.69529074 0.84811693 0.68130165 0.90187633 0.63027734 0.69862854
0.7505935 0.6978602
00000000: 86fc 233f b4c7 2c3f 93fe 313f 311e 593f
00000010: c969 2e3f 5ee1 663f db59 213f 52d9 323f
00000020: e526 403f f7a6 323f

7.running_mean f4 [10]
-0.52593166 0.0064153983 -0.3912285 0.3749212 -0.15467657 -0.06726655 -0.15582772 -0.22895332
-0.23512466 -0.23554918
00000000: 75a3 06bf 4338 d23b 1a4f c8be acf5 bf3e
00000010: 8963 1ebe 0cc3 89bd 4d91 1fbe bd72 6abe
00000020: 85c4 70be ce33 71be

7.running_var f4 [10]
0.16794777 0.2679826 0.24470899 0.30893776 0.39868322 0.35114065 0.15758419 0.25625607
0.22023757 0.26746488
00000000: 80fa 2b3e 0435 893e fe94 7a3e 172d 9e3e
00000010: 3520 cc3e b5c8 b33e c05d 213e ff33 833e
00000020: f585 613e 28f1 883e

9.weight f4 [1, 10]
0.45362648 0.75372845 0.527237 0.84716654 0.7731548 0.60380715 0.47089073 0.6865534
0.48117456 0.753354
00000000: bb41 e83e 59f4 403f 01f9 063f e8df 583f
00000010: 79ed 453f 1b93 1a3f 9718 f13e f7c1 2f3f
00000020: 835c f63e cfdb 403f
